{"format": "graph-model", "generatedBy": "2.4.1", "convertedBy": "TensorFlow.js Converter v3.3.0", "signature": {"inputs": {"unknown:0": {"name": "unknown:0", "dtype": "DT_FLOAT", "tensorShape": {"dim": [{"size": "1"}, {"size": "512"}]}}}, "outputs": {"Identity:0": {"name": "Identity:0", "dtype": "DT_FLOAT", "tensorShape": {"dim": [{"size": "1"}, {"size": "3"}, {"size": "128"}, {"size": "128"}]}}}}, "modelTopology": {"node": [{"name": "PartitionedCall/onnx_tf_prefix_Constant_5", "op": "Const", "attr": {"dtype": {"type": "DT_FLOAT"}, "value": {"tensor": {"dtype": "DT_FLOAT", "tensorShape": {}}}}}, {"name": "PartitionedCall/onnx_tf_prefix_ReduceMean_1/reduction_indices", "op": "Const", "attr": {"dtype": {"type": "DT_INT32"}, "value": {"tensor": {"dtype": "DT_INT32", "tensorShape": {}}}}}, {"name": "PartitionedCall/onnx_tf_prefix_Constant_2", "op": "Const", "attr": {"dtype": {"type": "DT_FLOAT"}, "value": {"tensor": {"dtype": "DT_FLOAT", "tensorShape": {}}}}}, {"name": "PartitionedCall/flatten/Const", "op": "Const", "attr": {"dtype": {"type": "DT_INT32"}, "value": {"tensor": {"dtype": "DT_INT32", "tensorShape": {"dim": [{"size": "2"}]}}}}}, {"name": "PartitionedCall/transpose", "op": "Const", "attr": {"dtype": {"type": "DT_FLOAT"}, "value": {"tensor": {"dtype": "DT_FLOAT", "tensorShape": {"dim": [{"size": "512"}, {"size": "8192"}]}}}}}, {"name": "PartitionedCall/mul_1", "op": "Const", "attr": {"dtype": {"type": "DT_FLOAT"}, "value": {"tensor": {"dtype": "DT_FLOAT", "tensorShape": {"dim": [{"size": "8192"}]}}}}}, {"name": "unknown_4", "op": "Const", "attr": {"value": {"tensor": {"dtype": "DT_FLOAT", "tensorShape": {}}}, "dtype": {"type": "DT_FLOAT"}}}, {"name": "PartitionedCall/onnx_tf_prefix_Concat_23", "op": "Const", "attr": {"value": {"tensor": {"dtype": "DT_INT64", "tensorShape": {"dim": [{"size": "4"}]}}}, "dtype": {"type": "DT_INT64"}}}, {"name": "PartitionedCall/Where_1", "op": "Const", "attr": {"value": {"tensor": {"dtype": "DT_INT64", "tensorShape": {"dim": [{}, {"size": "1"}]}}}, "dtype": {"type": "DT_INT64"}}}, {"name": "PartitionedCall/Cast_1", "op": "Const", "attr": {"dtype": {"type": "DT_INT64"}, "value": {"tensor": {"dtype": "DT_INT64", "tensorShape": {"dim": [{"size": "1"}]}}}}}, {"name": "PartitionedCall/GatherV2_1", "op": "Const", "attr": {"dtype": {"type": "DT_INT64"}, "value": {"tensor": {"dtype": "DT_INT64", "tensorShape": {"dim": [{}]}}}}}, {"name": "PartitionedCall/zeros_1", "op": "Const", "attr": {"value": {"tensor": {"dtype": "DT_INT64", "tensorShape": {}}}, "dtype": {"type": "DT_INT64"}}}, {"name": "PartitionedCall/onnx_tf_prefix_ReduceMean_26/reduction_indices", "op": "Const", "attr": {"value": {"tensor": {"dtype": "DT_INT32", "tensorShape": {}}}, "dtype": {"type": "DT_INT32"}}}, {"name": "PartitionedCall/onnx_tf_prefix_Constant_27", "op": "Const", "attr": {"dtype": {"type": "DT_FLOAT"}, "value": {"tensor": {"dtype": "DT_FLOAT", "tensorShape": {}}}}}, {"name": "PartitionedCall/Const_2", "op": "Const", "attr": {"dtype": {"type": "DT_INT32"}, "value": {"tensor": {"dtype": "DT_INT32", "tensorShape": {"dim": [{"size": "4"}, {"size": "2"}]}}}}}, {"name": "PartitionedCall/transpose_2/perm", "op": "Const", "attr": {"dtype": {"type": "DT_INT32"}, "value": {"tensor": {"dtype": "DT_INT32", "tensorShape": {"dim": [{"size": "4"}]}}}}}, {"name": "PartitionedCall/split", "op": "Const", "attr": {"value": {"tensor": {"dtype": "DT_FLOAT", "tensorShape": {"dim": [{"size": "3"}, {"size": "3"}, {"size": "512"}, {"size": "512"}]}}}, "dtype": {"type": "DT_FLOAT"}}}, {"name": "unknown_10", "op": "Const", "attr": {"value": {"tensor": {"dtype": "DT_FLOAT", "tensorShape": {"dim": [{"size": "512"}]}}}, "dtype": {"type": "DT_FLOAT"}}}, {"name": "PartitionedCall/transpose_3/perm", "op": "Const", "attr": {"dtype": {"type": "DT_INT32"}, "value": {"tensor": {"dtype": "DT_INT32", "tensorShape": {"dim": [{"size": "4"}]}}}}}, {"name": "unknown_11", "op": "Const", "attr": {"dtype": {"type": "DT_FLOAT"}, "value": {"tensor": {"dtype": "DT_FLOAT", "tensorShape": {}}}}}, {"name": "PartitionedCall/onnx_tf_prefix_ReduceMean_37/reduction_indices", "op": "Const", "attr": {"value": {"tensor": {"dtype": "DT_INT32", "tensorShape": {}}}, "dtype": {"type": "DT_INT32"}}}, {"name": "PartitionedCall/onnx_tf_prefix_Constant_38", "op": "Const", "attr": {"dtype": {"type": "DT_FLOAT"}, "value": {"tensor": {"dtype": "DT_FLOAT", "tensorShape": {}}}}}, {"name": "PartitionedCall/onnx_tf_prefix_Concat_56", "op": "Const", "attr": {"dtype": {"type": "DT_INT64"}, "value": {"tensor": {"dtype": "DT_INT64", "tensorShape": {"dim": [{"size": "6"}]}}}}}, {"name": "PartitionedCall/Where_2", "op": "Const", "attr": {"dtype": {"type": "DT_INT64"}, "value": {"tensor": {"dtype": "DT_INT64", "tensorShape": {"dim": [{}, {"size": "1"}]}}}}}, {"name": "PartitionedCall/Cast_2", "op": "Const", "attr": {"value": {"tensor": {"dtype": "DT_INT64", "tensorShape": {"dim": [{"size": "1"}]}}}, "dtype": {"type": "DT_INT64"}}}, {"name": "PartitionedCall/GatherV2_2", "op": "Const", "attr": {"dtype": {"type": "DT_INT64"}, "value": {"tensor": {"dtype": "DT_INT64", "tensorShape": {"dim": [{}]}}}}}, {"name": "PartitionedCall/zeros_2", "op": "Const", "attr": {"dtype": {"type": "DT_INT64"}, "value": {"tensor": {"dtype": "DT_INT64", "tensorShape": {}}}}}, {"name": "PartitionedCall/ones", "op": "Const", "attr": {"dtype": {"type": "DT_FLOAT"}, "value": {"tensor": {"dtype": "DT_FLOAT", "tensorShape": {"dim": [{"size": "1"}, {"size": "512"}, {"size": "4"}, {"size": "2"}, {"size": "4"}, {"size": "2"}]}}}}}, {"name": "PartitionedCall/onnx_tf_prefix_Concat_78", "op": "Const", "attr": {"dtype": {"type": "DT_INT64"}, "value": {"tensor": {"dtype": "DT_INT64", "tensorShape": {"dim": [{"size": "4"}]}}}}}, {"name": "PartitionedCall/Where_4", "op": "Const", "attr": {"dtype": {"type": "DT_INT64"}, "value": {"tensor": {"dtype": "DT_INT64", "tensorShape": {"dim": [{}, {"size": "1"}]}}}}}, {"name": "PartitionedCall/Cast_4", "op": "Const", "attr": {"value": {"tensor": {"dtype": "DT_INT64", "tensorShape": {"dim": [{"size": "1"}]}}}, "dtype": {"type": "DT_INT64"}}}, {"name": "PartitionedCall/GatherV2_4", "op": "Const", "attr": {"dtype": {"type": "DT_INT64"}, "value": {"tensor": {"dtype": "DT_INT64", "tensorShape": {"dim": [{}]}}}}}, {"name": "PartitionedCall/zeros_4", "op": "Const", "attr": {"value": {"tensor": {"dtype": "DT_INT64", "tensorShape": {}}}, "dtype": {"type": "DT_INT64"}}}, {"name": "PartitionedCall/Const_7", "op": "Const", "attr": {"value": {"tensor": {"dtype": "DT_INT32", "tensorShape": {"dim": [{"size": "4"}, {"size": "2"}]}}}, "dtype": {"type": "DT_INT32"}}}, {"name": "PartitionedCall/transpose_5/perm", "op": "Const", "attr": {"dtype": {"type": "DT_INT32"}, "value": {"tensor": {"dtype": "DT_INT32", "tensorShape": {"dim": [{"size": "4"}]}}}}}, {"name": "PartitionedCall/split_1", "op": "Const", "attr": {"value": {"tensor": {"dtype": "DT_FLOAT", "tensorShape": {"dim": [{"size": "3"}, {"size": "3"}, {"size": "512"}, {"size": "512"}]}}}, "dtype": {"type": "DT_FLOAT"}}}, {"name": "unknown_21", "op": "Const", "attr": {"value": {"tensor": {"dtype": "DT_FLOAT", "tensorShape": {"dim": [{"size": "512"}]}}}, "dtype": {"type": "DT_FLOAT"}}}, {"name": "PartitionedCall/transpose_6/perm", "op": "Const", "attr": {"value": {"tensor": {"dtype": "DT_INT32", "tensorShape": {"dim": [{"size": "4"}]}}}, "dtype": {"type": "DT_INT32"}}}, {"name": "unknown_22", "op": "Const", "attr": {"value": {"tensor": {"dtype": "DT_FLOAT", "tensorShape": {}}}, "dtype": {"type": "DT_FLOAT"}}}, {"name": "PartitionedCall/onnx_tf_prefix_ReduceMean_84/reduction_indices", "op": "Const", "attr": {"dtype": {"type": "DT_INT32"}, "value": {"tensor": {"dtype": "DT_INT32", "tensorShape": {}}}}}, {"name": "PartitionedCall/onnx_tf_prefix_Constant_85", "op": "Const", "attr": {"dtype": {"type": "DT_FLOAT"}, "value": {"tensor": {"dtype": "DT_FLOAT", "tensorShape": {}}}}}, {"name": "PartitionedCall/Const_9", "op": "Const", "attr": {"value": {"tensor": {"dtype": "DT_INT32", "tensorShape": {"dim": [{"size": "4"}, {"size": "2"}]}}}, "dtype": {"type": "DT_INT32"}}}, {"name": "PartitionedCall/transpose_8/perm", "op": "Const", "attr": {"value": {"tensor": {"dtype": "DT_INT32", "tensorShape": {"dim": [{"size": "4"}]}}}, "dtype": {"type": "DT_INT32"}}}, {"name": "PartitionedCall/split_2", "op": "Const", "attr": {"value": {"tensor": {"dtype": "DT_FLOAT", "tensorShape": {"dim": [{"size": "3"}, {"size": "3"}, {"size": "512"}, {"size": "512"}]}}}, "dtype": {"type": "DT_FLOAT"}}}, {"name": "unknown_25", "op": "Const", "attr": {"dtype": {"type": "DT_FLOAT"}, "value": {"tensor": {"dtype": "DT_FLOAT", "tensorShape": {"dim": [{"size": "512"}]}}}}}, {"name": "PartitionedCall/transpose_9/perm", "op": "Const", "attr": {"dtype": {"type": "DT_INT32"}, "value": {"tensor": {"dtype": "DT_INT32", "tensorShape": {"dim": [{"size": "4"}]}}}}}, {"name": "unknown_26", "op": "Const", "attr": {"dtype": {"type": "DT_FLOAT"}, "value": {"tensor": {"dtype": "DT_FLOAT", "tensorShape": {}}}}}, {"name": "PartitionedCall/onnx_tf_prefix_ReduceMean_95/reduction_indices", "op": "Const", "attr": {"dtype": {"type": "DT_INT32"}, "value": {"tensor": {"dtype": "DT_INT32", "tensorShape": {}}}}}, {"name": "PartitionedCall/onnx_tf_prefix_Constant_96", "op": "Const", "attr": {"value": {"tensor": {"dtype": "DT_FLOAT", "tensorShape": {}}}, "dtype": {"type": "DT_FLOAT"}}}, {"name": "PartitionedCall/onnx_tf_prefix_Concat_114", "op": "Const", "attr": {"value": {"tensor": {"dtype": "DT_INT64", "tensorShape": {"dim": [{"size": "6"}]}}}, "dtype": {"type": "DT_INT64"}}}, {"name": "PartitionedCall/Where_5", "op": "Const", "attr": {"dtype": {"type": "DT_INT64"}, "value": {"tensor": {"dtype": "DT_INT64", "tensorShape": {"dim": [{}, {"size": "1"}]}}}}}, {"name": "PartitionedCall/Cast_5", "op": "Const", "attr": {"value": {"tensor": {"dtype": "DT_INT64", "tensorShape": {"dim": [{"size": "1"}]}}}, "dtype": {"type": "DT_INT64"}}}, {"name": "PartitionedCall/GatherV2_5", "op": "Const", "attr": {"value": {"tensor": {"dtype": "DT_INT64", "tensorShape": {"dim": [{}]}}}, "dtype": {"type": "DT_INT64"}}}, {"name": "PartitionedCall/zeros_5", "op": "Const", "attr": {"dtype": {"type": "DT_INT64"}, "value": {"tensor": {"dtype": "DT_INT64", "tensorShape": {}}}}}, {"name": "PartitionedCall/ones_1", "op": "Const", "attr": {"dtype": {"type": "DT_FLOAT"}, "value": {"tensor": {"dtype": "DT_FLOAT", "tensorShape": {"dim": [{"size": "1"}, {"size": "512"}, {"size": "8"}, {"size": "2"}, {"size": "8"}, {"size": "2"}]}}}}}, {"name": "PartitionedCall/onnx_tf_prefix_Concat_136", "op": "Const", "attr": {"dtype": {"type": "DT_INT64"}, "value": {"tensor": {"dtype": "DT_INT64", "tensorShape": {"dim": [{"size": "4"}]}}}}}, {"name": "PartitionedCall/Where_7", "op": "Const", "attr": {"dtype": {"type": "DT_INT64"}, "value": {"tensor": {"dtype": "DT_INT64", "tensorShape": {"dim": [{}, {"size": "1"}]}}}}}, {"name": "PartitionedCall/Cast_7", "op": "Const", "attr": {"dtype": {"type": "DT_INT64"}, "value": {"tensor": {"dtype": "DT_INT64", "tensorShape": {"dim": [{"size": "1"}]}}}}}, {"name": "PartitionedCall/GatherV2_7", "op": "Const", "attr": {"dtype": {"type": "DT_INT64"}, "value": {"tensor": {"dtype": "DT_INT64", "tensorShape": {"dim": [{}]}}}}}, {"name": "PartitionedCall/zeros_7", "op": "Const", "attr": {"value": {"tensor": {"dtype": "DT_INT64", "tensorShape": {}}}, "dtype": {"type": "DT_INT64"}}}, {"name": "PartitionedCall/Const_14", "op": "Const", "attr": {"value": {"tensor": {"dtype": "DT_INT32", "tensorShape": {"dim": [{"size": "4"}, {"size": "2"}]}}}, "dtype": {"type": "DT_INT32"}}}, {"name": "PartitionedCall/transpose_11/perm", "op": "Const", "attr": {"value": {"tensor": {"dtype": "DT_INT32", "tensorShape": {"dim": [{"size": "4"}]}}}, "dtype": {"type": "DT_INT32"}}}, {"name": "PartitionedCall/split_3", "op": "Const", "attr": {"value": {"tensor": {"dtype": "DT_FLOAT", "tensorShape": {"dim": [{"size": "3"}, {"size": "3"}, {"size": "512"}, {"size": "512"}]}}}, "dtype": {"type": "DT_FLOAT"}}}, {"name": "unknown_36", "op": "Const", "attr": {"value": {"tensor": {"dtype": "DT_FLOAT", "tensorShape": {"dim": [{"size": "512"}]}}}, "dtype": {"type": "DT_FLOAT"}}}, {"name": "PartitionedCall/transpose_12/perm", "op": "Const", "attr": {"dtype": {"type": "DT_INT32"}, "value": {"tensor": {"dtype": "DT_INT32", "tensorShape": {"dim": [{"size": "4"}]}}}}}, {"name": "unknown_37", "op": "Const", "attr": {"dtype": {"type": "DT_FLOAT"}, "value": {"tensor": {"dtype": "DT_FLOAT", "tensorShape": {}}}}}, {"name": "PartitionedCall/onnx_tf_prefix_ReduceMean_142/reduction_indices", "op": "Const", "attr": {"dtype": {"type": "DT_INT32"}, "value": {"tensor": {"dtype": "DT_INT32", "tensorShape": {}}}}}, {"name": "PartitionedCall/onnx_tf_prefix_Constant_143", "op": "Const", "attr": {"dtype": {"type": "DT_FLOAT"}, "value": {"tensor": {"dtype": "DT_FLOAT", "tensorShape": {}}}}}, {"name": "PartitionedCall/Const_16", "op": "Const", "attr": {"value": {"tensor": {"dtype": "DT_INT32", "tensorShape": {"dim": [{"size": "4"}, {"size": "2"}]}}}, "dtype": {"type": "DT_INT32"}}}, {"name": "PartitionedCall/transpose_14/perm", "op": "Const", "attr": {"dtype": {"type": "DT_INT32"}, "value": {"tensor": {"dtype": "DT_INT32", "tensorShape": {"dim": [{"size": "4"}]}}}}}, {"name": "PartitionedCall/split_4", "op": "Const", "attr": {"dtype": {"type": "DT_FLOAT"}, "value": {"tensor": {"dtype": "DT_FLOAT", "tensorShape": {"dim": [{"size": "3"}, {"size": "3"}, {"size": "512"}, {"size": "512"}]}}}}}, {"name": "unknown_40", "op": "Const", "attr": {"dtype": {"type": "DT_FLOAT"}, "value": {"tensor": {"dtype": "DT_FLOAT", "tensorShape": {"dim": [{"size": "512"}]}}}}}, {"name": "PartitionedCall/transpose_15/perm", "op": "Const", "attr": {"dtype": {"type": "DT_INT32"}, "value": {"tensor": {"dtype": "DT_INT32", "tensorShape": {"dim": [{"size": "4"}]}}}}}, {"name": "unknown_41", "op": "Const", "attr": {"value": {"tensor": {"dtype": "DT_FLOAT", "tensorShape": {}}}, "dtype": {"type": "DT_FLOAT"}}}, {"name": "PartitionedCall/onnx_tf_prefix_ReduceMean_153/reduction_indices", "op": "Const", "attr": {"value": {"tensor": {"dtype": "DT_INT32", "tensorShape": {}}}, "dtype": {"type": "DT_INT32"}}}, {"name": "PartitionedCall/onnx_tf_prefix_Constant_154", "op": "Const", "attr": {"dtype": {"type": "DT_FLOAT"}, "value": {"tensor": {"dtype": "DT_FLOAT", "tensorShape": {}}}}}, {"name": "PartitionedCall/onnx_tf_prefix_Concat_172", "op": "Const", "attr": {"value": {"tensor": {"dtype": "DT_INT64", "tensorShape": {"dim": [{"size": "6"}]}}}, "dtype": {"type": "DT_INT64"}}}, {"name": "PartitionedCall/Where_8", "op": "Const", "attr": {"dtype": {"type": "DT_INT64"}, "value": {"tensor": {"dtype": "DT_INT64", "tensorShape": {"dim": [{}, {"size": "1"}]}}}}}, {"name": "PartitionedCall/Cast_8", "op": "Const", "attr": {"dtype": {"type": "DT_INT64"}, "value": {"tensor": {"dtype": "DT_INT64", "tensorShape": {"dim": [{"size": "1"}]}}}}}, {"name": "PartitionedCall/GatherV2_8", "op": "Const", "attr": {"value": {"tensor": {"dtype": "DT_INT64", "tensorShape": {"dim": [{}]}}}, "dtype": {"type": "DT_INT64"}}}, {"name": "PartitionedCall/zeros_8", "op": "Const", "attr": {"dtype": {"type": "DT_INT64"}, "value": {"tensor": {"dtype": "DT_INT64", "tensorShape": {}}}}}, {"name": "PartitionedCall/ones_2", "op": "Const", "attr": {"dtype": {"type": "DT_FLOAT"}, "value": {"tensor": {"dtype": "DT_FLOAT", "tensorShape": {"dim": [{"size": "1"}, {"size": "512"}, {"size": "16"}, {"size": "2"}, {"size": "16"}, {"size": "2"}]}}}}}, {"name": "PartitionedCall/onnx_tf_prefix_Concat_194", "op": "Const", "attr": {"value": {"tensor": {"dtype": "DT_INT64", "tensorShape": {"dim": [{"size": "4"}]}}}, "dtype": {"type": "DT_INT64"}}}, {"name": "PartitionedCall/Where_10", "op": "Const", "attr": {"dtype": {"type": "DT_INT64"}, "value": {"tensor": {"dtype": "DT_INT64", "tensorShape": {"dim": [{}, {"size": "1"}]}}}}}, {"name": "PartitionedCall/Cast_10", "op": "Const", "attr": {"dtype": {"type": "DT_INT64"}, "value": {"tensor": {"dtype": "DT_INT64", "tensorShape": {"dim": [{"size": "1"}]}}}}}, {"name": "PartitionedCall/GatherV2_10", "op": "Const", "attr": {"value": {"tensor": {"dtype": "DT_INT64", "tensorShape": {"dim": [{}]}}}, "dtype": {"type": "DT_INT64"}}}, {"name": "PartitionedCall/zeros_10", "op": "Const", "attr": {"value": {"tensor": {"dtype": "DT_INT64", "tensorShape": {}}}, "dtype": {"type": "DT_INT64"}}}, {"name": "PartitionedCall/Const_21", "op": "Const", "attr": {"value": {"tensor": {"dtype": "DT_INT32", "tensorShape": {"dim": [{"size": "4"}, {"size": "2"}]}}}, "dtype": {"type": "DT_INT32"}}}, {"name": "PartitionedCall/transpose_17/perm", "op": "Const", "attr": {"dtype": {"type": "DT_INT32"}, "value": {"tensor": {"dtype": "DT_INT32", "tensorShape": {"dim": [{"size": "4"}]}}}}}, {"name": "PartitionedCall/split_5", "op": "Const", "attr": {"value": {"tensor": {"dtype": "DT_FLOAT", "tensorShape": {"dim": [{"size": "3"}, {"size": "3"}, {"size": "512"}, {"size": "512"}]}}}, "dtype": {"type": "DT_FLOAT"}}}, {"name": "unknown_51", "op": "Const", "attr": {"value": {"tensor": {"dtype": "DT_FLOAT", "tensorShape": {"dim": [{"size": "512"}]}}}, "dtype": {"type": "DT_FLOAT"}}}, {"name": "PartitionedCall/transpose_18/perm", "op": "Const", "attr": {"dtype": {"type": "DT_INT32"}, "value": {"tensor": {"dtype": "DT_INT32", "tensorShape": {"dim": [{"size": "4"}]}}}}}, {"name": "unknown_52", "op": "Const", "attr": {"dtype": {"type": "DT_FLOAT"}, "value": {"tensor": {"dtype": "DT_FLOAT", "tensorShape": {}}}}}, {"name": "PartitionedCall/onnx_tf_prefix_ReduceMean_200/reduction_indices", "op": "Const", "attr": {"dtype": {"type": "DT_INT32"}, "value": {"tensor": {"dtype": "DT_INT32", "tensorShape": {}}}}}, {"name": "PartitionedCall/onnx_tf_prefix_Constant_201", "op": "Const", "attr": {"value": {"tensor": {"dtype": "DT_FLOAT", "tensorShape": {}}}, "dtype": {"type": "DT_FLOAT"}}}, {"name": "PartitionedCall/Const_23", "op": "Const", "attr": {"dtype": {"type": "DT_INT32"}, "value": {"tensor": {"dtype": "DT_INT32", "tensorShape": {"dim": [{"size": "4"}, {"size": "2"}]}}}}}, {"name": "PartitionedCall/transpose_20/perm", "op": "Const", "attr": {"dtype": {"type": "DT_INT32"}, "value": {"tensor": {"dtype": "DT_INT32", "tensorShape": {"dim": [{"size": "4"}]}}}}}, {"name": "PartitionedCall/split_6", "op": "Const", "attr": {"dtype": {"type": "DT_FLOAT"}, "value": {"tensor": {"dtype": "DT_FLOAT", "tensorShape": {"dim": [{"size": "3"}, {"size": "3"}, {"size": "512"}, {"size": "512"}]}}}}}, {"name": "unknown_55", "op": "Const", "attr": {"dtype": {"type": "DT_FLOAT"}, "value": {"tensor": {"dtype": "DT_FLOAT", "tensorShape": {"dim": [{"size": "512"}]}}}}}, {"name": "PartitionedCall/transpose_21/perm", "op": "Const", "attr": {"value": {"tensor": {"dtype": "DT_INT32", "tensorShape": {"dim": [{"size": "4"}]}}}, "dtype": {"type": "DT_INT32"}}}, {"name": "unknown_56", "op": "Const", "attr": {"dtype": {"type": "DT_FLOAT"}, "value": {"tensor": {"dtype": "DT_FLOAT", "tensorShape": {}}}}}, {"name": "PartitionedCall/onnx_tf_prefix_ReduceMean_211/reduction_indices", "op": "Const", "attr": {"dtype": {"type": "DT_INT32"}, "value": {"tensor": {"dtype": "DT_INT32", "tensorShape": {}}}}}, {"name": "PartitionedCall/onnx_tf_prefix_Constant_212", "op": "Const", "attr": {"dtype": {"type": "DT_FLOAT"}, "value": {"tensor": {"dtype": "DT_FLOAT", "tensorShape": {}}}}}, {"name": "PartitionedCall/onnx_tf_prefix_Concat_230", "op": "Const", "attr": {"value": {"tensor": {"dtype": "DT_INT64", "tensorShape": {"dim": [{"size": "6"}]}}}, "dtype": {"type": "DT_INT64"}}}, {"name": "PartitionedCall/Where_11", "op": "Const", "attr": {"dtype": {"type": "DT_INT64"}, "value": {"tensor": {"dtype": "DT_INT64", "tensorShape": {"dim": [{}, {"size": "1"}]}}}}}, {"name": "PartitionedCall/Cast_11", "op": "Const", "attr": {"value": {"tensor": {"dtype": "DT_INT64", "tensorShape": {"dim": [{"size": "1"}]}}}, "dtype": {"type": "DT_INT64"}}}, {"name": "PartitionedCall/GatherV2_11", "op": "Const", "attr": {"value": {"tensor": {"dtype": "DT_INT64", "tensorShape": {"dim": [{}]}}}, "dtype": {"type": "DT_INT64"}}}, {"name": "PartitionedCall/zeros_11", "op": "Const", "attr": {"dtype": {"type": "DT_INT64"}, "value": {"tensor": {"dtype": "DT_INT64", "tensorShape": {}}}}}, {"name": "PartitionedCall/ones_3", "op": "Const", "attr": {"value": {"tensor": {"dtype": "DT_FLOAT", "tensorShape": {"dim": [{"size": "1"}, {"size": "512"}, {"size": "32"}, {"size": "2"}, {"size": "32"}, {"size": "2"}]}}}, "dtype": {"type": "DT_FLOAT"}}}, {"name": "PartitionedCall/onnx_tf_prefix_Concat_252", "op": "Const", "attr": {"value": {"tensor": {"dtype": "DT_INT64", "tensorShape": {"dim": [{"size": "4"}]}}}, "dtype": {"type": "DT_INT64"}}}, {"name": "PartitionedCall/Where_13", "op": "Const", "attr": {"dtype": {"type": "DT_INT64"}, "value": {"tensor": {"dtype": "DT_INT64", "tensorShape": {"dim": [{}, {"size": "1"}]}}}}}, {"name": "PartitionedCall/Cast_13", "op": "Const", "attr": {"dtype": {"type": "DT_INT64"}, "value": {"tensor": {"dtype": "DT_INT64", "tensorShape": {"dim": [{"size": "1"}]}}}}}, {"name": "PartitionedCall/GatherV2_13", "op": "Const", "attr": {"dtype": {"type": "DT_INT64"}, "value": {"tensor": {"dtype": "DT_INT64", "tensorShape": {"dim": [{}]}}}}}, {"name": "PartitionedCall/zeros_13", "op": "Const", "attr": {"dtype": {"type": "DT_INT64"}, "value": {"tensor": {"dtype": "DT_INT64", "tensorShape": {}}}}}, {"name": "PartitionedCall/Const_28", "op": "Const", "attr": {"dtype": {"type": "DT_INT32"}, "value": {"tensor": {"dtype": "DT_INT32", "tensorShape": {"dim": [{"size": "4"}, {"size": "2"}]}}}}}, {"name": "PartitionedCall/transpose_23/perm", "op": "Const", "attr": {"dtype": {"type": "DT_INT32"}, "value": {"tensor": {"dtype": "DT_INT32", "tensorShape": {"dim": [{"size": "4"}]}}}}}, {"name": "PartitionedCall/split_7", "op": "Const", "attr": {"dtype": {"type": "DT_FLOAT"}, "value": {"tensor": {"dtype": "DT_FLOAT", "tensorShape": {"dim": [{"size": "3"}, {"size": "3"}, {"size": "512"}, {"size": "256"}]}}}}}, {"name": "unknown_66", "op": "Const", "attr": {"value": {"tensor": {"dtype": "DT_FLOAT", "tensorShape": {"dim": [{"size": "256"}]}}}, "dtype": {"type": "DT_FLOAT"}}}, {"name": "PartitionedCall/transpose_24/perm", "op": "Const", "attr": {"value": {"tensor": {"dtype": "DT_INT32", "tensorShape": {"dim": [{"size": "4"}]}}}, "dtype": {"type": "DT_INT32"}}}, {"name": "unknown_67", "op": "Const", "attr": {"value": {"tensor": {"dtype": "DT_FLOAT", "tensorShape": {}}}, "dtype": {"type": "DT_FLOAT"}}}, {"name": "PartitionedCall/onnx_tf_prefix_ReduceMean_258/reduction_indices", "op": "Const", "attr": {"dtype": {"type": "DT_INT32"}, "value": {"tensor": {"dtype": "DT_INT32", "tensorShape": {}}}}}, {"name": "PartitionedCall/onnx_tf_prefix_Constant_259", "op": "Const", "attr": {"dtype": {"type": "DT_FLOAT"}, "value": {"tensor": {"dtype": "DT_FLOAT", "tensorShape": {}}}}}, {"name": "PartitionedCall/Const_30", "op": "Const", "attr": {"value": {"tensor": {"dtype": "DT_INT32", "tensorShape": {"dim": [{"size": "4"}, {"size": "2"}]}}}, "dtype": {"type": "DT_INT32"}}}, {"name": "PartitionedCall/transpose_26/perm", "op": "Const", "attr": {"value": {"tensor": {"dtype": "DT_INT32", "tensorShape": {"dim": [{"size": "4"}]}}}, "dtype": {"type": "DT_INT32"}}}, {"name": "PartitionedCall/split_8", "op": "Const", "attr": {"dtype": {"type": "DT_FLOAT"}, "value": {"tensor": {"dtype": "DT_FLOAT", "tensorShape": {"dim": [{"size": "3"}, {"size": "3"}, {"size": "256"}, {"size": "256"}]}}}}}, {"name": "unknown_70", "op": "Const", "attr": {"value": {"tensor": {"dtype": "DT_FLOAT", "tensorShape": {"dim": [{"size": "256"}]}}}, "dtype": {"type": "DT_FLOAT"}}}, {"name": "PartitionedCall/transpose_27/perm", "op": "Const", "attr": {"value": {"tensor": {"dtype": "DT_INT32", "tensorShape": {"dim": [{"size": "4"}]}}}, "dtype": {"type": "DT_INT32"}}}, {"name": "unknown_71", "op": "Const", "attr": {"value": {"tensor": {"dtype": "DT_FLOAT", "tensorShape": {}}}, "dtype": {"type": "DT_FLOAT"}}}, {"name": "PartitionedCall/onnx_tf_prefix_ReduceMean_269/reduction_indices", "op": "Const", "attr": {"dtype": {"type": "DT_INT32"}, "value": {"tensor": {"dtype": "DT_INT32", "tensorShape": {}}}}}, {"name": "PartitionedCall/onnx_tf_prefix_Constant_270", "op": "Const", "attr": {"value": {"tensor": {"dtype": "DT_FLOAT", "tensorShape": {}}}, "dtype": {"type": "DT_FLOAT"}}}, {"name": "PartitionedCall/onnx_tf_prefix_Concat_288", "op": "Const", "attr": {"dtype": {"type": "DT_INT64"}, "value": {"tensor": {"dtype": "DT_INT64", "tensorShape": {"dim": [{"size": "6"}]}}}}}, {"name": "PartitionedCall/Where_14", "op": "Const", "attr": {"dtype": {"type": "DT_INT64"}, "value": {"tensor": {"dtype": "DT_INT64", "tensorShape": {"dim": [{}, {"size": "1"}]}}}}}, {"name": "PartitionedCall/Cast_14", "op": "Const", "attr": {"value": {"tensor": {"dtype": "DT_INT64", "tensorShape": {"dim": [{"size": "1"}]}}}, "dtype": {"type": "DT_INT64"}}}, {"name": "PartitionedCall/GatherV2_14", "op": "Const", "attr": {"dtype": {"type": "DT_INT64"}, "value": {"tensor": {"dtype": "DT_INT64", "tensorShape": {"dim": [{}]}}}}}, {"name": "PartitionedCall/zeros_14", "op": "Const", "attr": {"dtype": {"type": "DT_INT64"}, "value": {"tensor": {"dtype": "DT_INT64", "tensorShape": {}}}}}, {"name": "PartitionedCall/ones_4", "op": "Const", "attr": {"value": {"tensor": {"dtype": "DT_FLOAT", "tensorShape": {"dim": [{"size": "1"}, {"size": "256"}, {"size": "64"}, {"size": "2"}, {"size": "64"}, {"size": "2"}]}}}, "dtype": {"type": "DT_FLOAT"}}}, {"name": "PartitionedCall/onnx_tf_prefix_Concat_310", "op": "Const", "attr": {"value": {"tensor": {"dtype": "DT_INT64", "tensorShape": {"dim": [{"size": "4"}]}}}, "dtype": {"type": "DT_INT64"}}}, {"name": "PartitionedCall/Where_16", "op": "Const", "attr": {"dtype": {"type": "DT_INT64"}, "value": {"tensor": {"dtype": "DT_INT64", "tensorShape": {"dim": [{}, {"size": "1"}]}}}}}, {"name": "PartitionedCall/Cast_16", "op": "Const", "attr": {"dtype": {"type": "DT_INT64"}, "value": {"tensor": {"dtype": "DT_INT64", "tensorShape": {"dim": [{"size": "1"}]}}}}}, {"name": "PartitionedCall/GatherV2_16", "op": "Const", "attr": {"value": {"tensor": {"dtype": "DT_INT64", "tensorShape": {"dim": [{}]}}}, "dtype": {"type": "DT_INT64"}}}, {"name": "PartitionedCall/zeros_16", "op": "Const", "attr": {"value": {"tensor": {"dtype": "DT_INT64", "tensorShape": {}}}, "dtype": {"type": "DT_INT64"}}}, {"name": "PartitionedCall/Const_35", "op": "Const", "attr": {"dtype": {"type": "DT_INT32"}, "value": {"tensor": {"dtype": "DT_INT32", "tensorShape": {"dim": [{"size": "4"}, {"size": "2"}]}}}}}, {"name": "PartitionedCall/transpose_29/perm", "op": "Const", "attr": {"value": {"tensor": {"dtype": "DT_INT32", "tensorShape": {"dim": [{"size": "4"}]}}}, "dtype": {"type": "DT_INT32"}}}, {"name": "PartitionedCall/split_9", "op": "Const", "attr": {"value": {"tensor": {"dtype": "DT_FLOAT", "tensorShape": {"dim": [{"size": "3"}, {"size": "3"}, {"size": "256"}, {"size": "128"}]}}}, "dtype": {"type": "DT_FLOAT"}}}, {"name": "unknown_81", "op": "Const", "attr": {"dtype": {"type": "DT_FLOAT"}, "value": {"tensor": {"dtype": "DT_FLOAT", "tensorShape": {"dim": [{"size": "128"}]}}}}}, {"name": "PartitionedCall/transpose_30/perm", "op": "Const", "attr": {"value": {"tensor": {"dtype": "DT_INT32", "tensorShape": {"dim": [{"size": "4"}]}}}, "dtype": {"type": "DT_INT32"}}}, {"name": "unknown_82", "op": "Const", "attr": {"value": {"tensor": {"dtype": "DT_FLOAT", "tensorShape": {}}}, "dtype": {"type": "DT_FLOAT"}}}, {"name": "PartitionedCall/onnx_tf_prefix_ReduceMean_316/reduction_indices", "op": "Const", "attr": {"value": {"tensor": {"dtype": "DT_INT32", "tensorShape": {}}}, "dtype": {"type": "DT_INT32"}}}, {"name": "PartitionedCall/onnx_tf_prefix_Constant_317", "op": "Const", "attr": {"value": {"tensor": {"dtype": "DT_FLOAT", "tensorShape": {}}}, "dtype": {"type": "DT_FLOAT"}}}, {"name": "PartitionedCall/Const_37", "op": "Const", "attr": {"value": {"tensor": {"dtype": "DT_INT32", "tensorShape": {"dim": [{"size": "4"}, {"size": "2"}]}}}, "dtype": {"type": "DT_INT32"}}}, {"name": "PartitionedCall/transpose_32/perm", "op": "Const", "attr": {"value": {"tensor": {"dtype": "DT_INT32", "tensorShape": {"dim": [{"size": "4"}]}}}, "dtype": {"type": "DT_INT32"}}}, {"name": "PartitionedCall/split_10", "op": "Const", "attr": {"dtype": {"type": "DT_FLOAT"}, "value": {"tensor": {"dtype": "DT_FLOAT", "tensorShape": {"dim": [{"size": "3"}, {"size": "3"}, {"size": "128"}, {"size": "128"}]}}}}}, {"name": "unknown_85", "op": "Const", "attr": {"value": {"tensor": {"dtype": "DT_FLOAT", "tensorShape": {"dim": [{"size": "128"}]}}}, "dtype": {"type": "DT_FLOAT"}}}, {"name": "PartitionedCall/transpose_33/perm", "op": "Const", "attr": {"value": {"tensor": {"dtype": "DT_INT32", "tensorShape": {"dim": [{"size": "4"}]}}}, "dtype": {"type": "DT_INT32"}}}, {"name": "unknown_86", "op": "Const", "attr": {"value": {"tensor": {"dtype": "DT_FLOAT", "tensorShape": {}}}, "dtype": {"type": "DT_FLOAT"}}}, {"name": "PartitionedCall/onnx_tf_prefix_ReduceMean_327/reduction_indices", "op": "Const", "attr": {"value": {"tensor": {"dtype": "DT_INT32", "tensorShape": {}}}, "dtype": {"type": "DT_INT32"}}}, {"name": "PartitionedCall/onnx_tf_prefix_Constant_328", "op": "Const", "attr": {"value": {"tensor": {"dtype": "DT_FLOAT", "tensorShape": {}}}, "dtype": {"type": "DT_FLOAT"}}}, {"name": "PartitionedCall/transpose_35/perm", "op": "Const", "attr": {"dtype": {"type": "DT_INT32"}, "value": {"tensor": {"dtype": "DT_INT32", "tensorShape": {"dim": [{"size": "4"}]}}}}}, {"name": "PartitionedCall/split_11", "op": "Const", "attr": {"value": {"tensor": {"dtype": "DT_FLOAT", "tensorShape": {"dim": [{"size": "1"}, {"size": "1"}, {"size": "128"}, {"size": "3"}]}}}, "dtype": {"type": "DT_FLOAT"}}}, {"name": "unknown_89", "op": "Const", "attr": {"value": {"tensor": {"dtype": "DT_FLOAT", "tensorShape": {"dim": [{"size": "3"}]}}}, "dtype": {"type": "DT_FLOAT"}}}, {"name": "PartitionedCall/transpose_36/perm", "op": "Const", "attr": {"dtype": {"type": "DT_INT32"}, "value": {"tensor": {"dtype": "DT_INT32", "tensorShape": {"dim": [{"size": "4"}]}}}}}, {"name": "unknown_90", "op": "Const", "attr": {"dtype": {"type": "DT_FLOAT"}, "value": {"tensor": {"dtype": "DT_FLOAT", "tensorShape": {}}}}}, {"name": "unknown", "op": "Placeholder", "attr": {"shape": {"shape": {"dim": [{"size": "1"}, {"size": "512"}]}}, "dtype": {"type": "DT_FLOAT"}}}, {"name": "PartitionedCall/SparseToDense_1", "op": "SparseToDense", "input": ["PartitionedCall/Where_1", "PartitionedCall/Cast_1", "PartitionedCall/GatherV2_1", "PartitionedCall/zeros_1"], "attr": {"validate_indices": {"b": true}, "T": {"type": "DT_INT64"}, "Tindices": {"type": "DT_INT64"}}}, {"name": "PartitionedCall/SparseToDense_2", "op": "SparseToDense", "input": ["PartitionedCall/Where_2", "PartitionedCall/Cast_2", "PartitionedCall/GatherV2_2", "PartitionedCall/zeros_2"], "attr": {"T": {"type": "DT_INT64"}, "Tindices": {"type": "DT_INT64"}, "validate_indices": {"b": true}}}, {"name": "PartitionedCall/SparseToDense_4", "op": "SparseToDense", "input": ["PartitionedCall/Where_4", "PartitionedCall/Cast_4", "PartitionedCall/GatherV2_4", "PartitionedCall/zeros_4"], "attr": {"Tindices": {"type": "DT_INT64"}, "T": {"type": "DT_INT64"}, "validate_indices": {"b": true}}}, {"name": "PartitionedCall/SparseToDense_5", "op": "SparseToDense", "input": ["PartitionedCall/Where_5", "PartitionedCall/Cast_5", "PartitionedCall/GatherV2_5", "PartitionedCall/zeros_5"], "attr": {"validate_indices": {"b": true}, "Tindices": {"type": "DT_INT64"}, "T": {"type": "DT_INT64"}}}, {"name": "PartitionedCall/SparseToDense_7", "op": "SparseToDense", "input": ["PartitionedCall/Where_7", "PartitionedCall/Cast_7", "PartitionedCall/GatherV2_7", "PartitionedCall/zeros_7"], "attr": {"T": {"type": "DT_INT64"}, "validate_indices": {"b": true}, "Tindices": {"type": "DT_INT64"}}}, {"name": "PartitionedCall/SparseToDense_8", "op": "SparseToDense", "input": ["PartitionedCall/Where_8", "PartitionedCall/Cast_8", "PartitionedCall/GatherV2_8", "PartitionedCall/zeros_8"], "attr": {"Tindices": {"type": "DT_INT64"}, "T": {"type": "DT_INT64"}, "validate_indices": {"b": true}}}, {"name": "PartitionedCall/SparseToDense_10", "op": "SparseToDense", "input": ["PartitionedCall/Where_10", "PartitionedCall/Cast_10", "PartitionedCall/GatherV2_10", "PartitionedCall/zeros_10"], "attr": {"T": {"type": "DT_INT64"}, "validate_indices": {"b": true}, "Tindices": {"type": "DT_INT64"}}}, {"name": "PartitionedCall/SparseToDense_11", "op": "SparseToDense", "input": ["PartitionedCall/Where_11", "PartitionedCall/Cast_11", "PartitionedCall/GatherV2_11", "PartitionedCall/zeros_11"], "attr": {"Tindices": {"type": "DT_INT64"}, "T": {"type": "DT_INT64"}, "validate_indices": {"b": true}}}, {"name": "PartitionedCall/SparseToDense_13", "op": "SparseToDense", "input": ["PartitionedCall/Where_13", "PartitionedCall/Cast_13", "PartitionedCall/GatherV2_13", "PartitionedCall/zeros_13"], "attr": {"T": {"type": "DT_INT64"}, "Tindices": {"type": "DT_INT64"}, "validate_indices": {"b": true}}}, {"name": "PartitionedCall/SparseToDense_14", "op": "SparseToDense", "input": ["PartitionedCall/Where_14", "PartitionedCall/Cast_14", "PartitionedCall/GatherV2_14", "PartitionedCall/zeros_14"], "attr": {"validate_indices": {"b": true}, "T": {"type": "DT_INT64"}, "Tindices": {"type": "DT_INT64"}}}, {"name": "PartitionedCall/SparseToDense_16", "op": "SparseToDense", "input": ["PartitionedCall/Where_16", "PartitionedCall/Cast_16", "PartitionedCall/GatherV2_16", "PartitionedCall/zeros_16"], "attr": {"validate_indices": {"b": true}, "T": {"type": "DT_INT64"}, "Tindices": {"type": "DT_INT64"}}}, {"name": "PartitionedCall/onnx_tf_prefix_Pow_0", "op": "Square", "input": ["unknown"], "attr": {"T": {"type": "DT_FLOAT"}}}, {"name": "PartitionedCall/add_2", "op": "AddV2", "input": ["PartitionedCall/onnx_tf_prefix_Concat_23", "PartitionedCall/SparseToDense_1"], "attr": {"T": {"type": "DT_INT64"}}}, {"name": "PartitionedCall/add_4", "op": "AddV2", "input": ["PartitionedCall/onnx_tf_prefix_Concat_56", "PartitionedCall/SparseToDense_2"], "attr": {"T": {"type": "DT_INT64"}}}, {"name": "PartitionedCall/add_6", "op": "AddV2", "input": ["PartitionedCall/onnx_tf_prefix_Concat_78", "PartitionedCall/SparseToDense_4"], "attr": {"T": {"type": "DT_INT64"}}}, {"name": "PartitionedCall/add_9", "op": "AddV2", "input": ["PartitionedCall/onnx_tf_prefix_Concat_114", "PartitionedCall/SparseToDense_5"], "attr": {"T": {"type": "DT_INT64"}}}, {"name": "PartitionedCall/add_11", "op": "AddV2", "input": ["PartitionedCall/onnx_tf_prefix_Concat_136", "PartitionedCall/SparseToDense_7"], "attr": {"T": {"type": "DT_INT64"}}}, {"name": "PartitionedCall/add_14", "op": "AddV2", "input": ["PartitionedCall/onnx_tf_prefix_Concat_172", "PartitionedCall/SparseToDense_8"], "attr": {"T": {"type": "DT_INT64"}}}, {"name": "PartitionedCall/add_16", "op": "AddV2", "input": ["PartitionedCall/onnx_tf_prefix_Concat_194", "PartitionedCall/SparseToDense_10"], "attr": {"T": {"type": "DT_INT64"}}}, {"name": "PartitionedCall/add_19", "op": "AddV2", "input": ["PartitionedCall/onnx_tf_prefix_Concat_230", "PartitionedCall/SparseToDense_11"], "attr": {"T": {"type": "DT_INT64"}}}, {"name": "PartitionedCall/add_21", "op": "AddV2", "input": ["PartitionedCall/onnx_tf_prefix_Concat_252", "PartitionedCall/SparseToDense_13"], "attr": {"T": {"type": "DT_INT64"}}}, {"name": "PartitionedCall/add_24", "op": "AddV2", "input": ["PartitionedCall/onnx_tf_prefix_Concat_288", "PartitionedCall/SparseToDense_14"], "attr": {"T": {"type": "DT_INT64"}}}, {"name": "PartitionedCall/add_26", "op": "AddV2", "input": ["PartitionedCall/onnx_tf_prefix_Concat_310", "PartitionedCall/SparseToDense_16"], "attr": {"T": {"type": "DT_INT64"}}}, {"name": "PartitionedCall/onnx_tf_prefix_ReduceMean_1", "op": "Mean", "input": ["PartitionedCall/onnx_tf_prefix_Pow_0", "PartitionedCall/onnx_tf_prefix_ReduceMean_1/reduction_indices"], "attr": {"T": {"type": "DT_FLOAT"}, "keep_dims": {"b": true}, "Tidx": {"type": "DT_INT32"}}}, {"name": "PartitionedCall/onnx_tf_prefix_Add_3", "op": "Add", "input": ["PartitionedCall/onnx_tf_prefix_ReduceMean_1", "PartitionedCall/onnx_tf_prefix_Constant_2"], "attr": {"T": {"type": "DT_FLOAT"}}}, {"name": "PartitionedCall/onnx_tf_prefix_Sqrt_4", "op": "Rsqrt", "input": ["PartitionedCall/onnx_tf_prefix_Add_3"], "attr": {"T": {"type": "DT_FLOAT"}}}, {"name": "PartitionedCall/onnx_tf_prefix_Div_6", "op": "Mul", "input": ["PartitionedCall/onnx_tf_prefix_Constant_5", "PartitionedCall/onnx_tf_prefix_Sqrt_4"], "attr": {"T": {"type": "DT_FLOAT"}}}, {"name": "PartitionedCall/onnx_tf_prefix_Mul_7", "op": "Mul", "input": ["unknown", "PartitionedCall/onnx_tf_prefix_Div_6"], "attr": {"T": {"type": "DT_FLOAT"}}}, {"name": "PartitionedCall/flatten/Reshape", "op": "Reshape", "input": ["PartitionedCall/onnx_tf_prefix_Mul_7", "PartitionedCall/flatten/Const"], "attr": {"T": {"type": "DT_FLOAT"}, "Tshape": {"type": "DT_INT32"}}}, {"name": "PartitionedCall/MatMul", "op": "MatMul", "input": ["PartitionedCall/flatten/Reshape", "PartitionedCall/transpose"], "device": "/device:CPU:0", "attr": {"transpose_b": {"b": false}, "transpose_a": {"b": false}, "T": {"type": "DT_FLOAT"}}}, {"name": "PartitionedCall/add_1", "op": "AddV2", "input": ["PartitionedCall/MatMul", "PartitionedCall/mul_1"], "attr": {"T": {"type": "DT_FLOAT"}}}, {"name": "PartitionedCall/onnx_tf_prefix_Mul_17", "op": "Mul", "input": ["PartitionedCall/add_1", "unknown_4"], "attr": {"T": {"type": "DT_FLOAT"}}}, {"name": "PartitionedCall/onnx_tf_prefix_LeakyRelu_18", "op": "LeakyRelu", "input": ["PartitionedCall/onnx_tf_prefix_Mul_17"], "attr": {"alpha": {"f": 0.2}, "T": {"type": "DT_FLOAT"}}}, {"name": "PartitionedCall/onnx_tf_prefix_Reshape_24", "op": "Reshape", "input": ["PartitionedCall/onnx_tf_prefix_LeakyRelu_18", "PartitionedCall/add_2"], "attr": {"Tshape": {"type": "DT_INT64"}, "T": {"type": "DT_FLOAT"}}}, {"name": "PartitionedCall/onnx_tf_prefix_Pow_25", "op": "Square", "input": ["PartitionedCall/onnx_tf_prefix_Reshape_24"], "attr": {"T": {"type": "DT_FLOAT"}}}, {"name": "PartitionedCall/onnx_tf_prefix_ReduceMean_26", "op": "Mean", "input": ["PartitionedCall/onnx_tf_prefix_Pow_25", "PartitionedCall/onnx_tf_prefix_ReduceMean_26/reduction_indices"], "attr": {"Tidx": {"type": "DT_INT32"}, "keep_dims": {"b": true}, "T": {"type": "DT_FLOAT"}}}, {"name": "PartitionedCall/onnx_tf_prefix_Add_28", "op": "Add", "input": ["PartitionedCall/onnx_tf_prefix_ReduceMean_26", "PartitionedCall/onnx_tf_prefix_Constant_27"], "attr": {"T": {"type": "DT_FLOAT"}}}, {"name": "PartitionedCall/onnx_tf_prefix_Sqrt_29", "op": "Sqrt", "input": ["PartitionedCall/onnx_tf_prefix_Add_28"], "attr": {"T": {"type": "DT_FLOAT"}}}, {"name": "PartitionedCall/onnx_tf_prefix_Div_31", "op": "Reciprocal", "input": ["PartitionedCall/onnx_tf_prefix_Sqrt_29"], "attr": {"T": {"type": "DT_FLOAT"}}}, {"name": "PartitionedCall/onnx_tf_prefix_Mul_32", "op": "Mul", "input": ["PartitionedCall/onnx_tf_prefix_Reshape_24", "PartitionedCall/onnx_tf_prefix_Div_31"], "attr": {"T": {"type": "DT_FLOAT"}}}, {"name": "PartitionedCall/Pad", "op": "Pad", "input": ["PartitionedCall/onnx_tf_prefix_Mul_32", "PartitionedCall/Const_2"], "attr": {"Tpaddings": {"type": "DT_INT32"}, "T": {"type": "DT_FLOAT"}}}, {"name": "PartitionedCall/transpose_2", "op": "Transpose", "input": ["PartitionedCall/Pad", "PartitionedCall/transpose_2/perm"], "attr": {"Tperm": {"type": "DT_INT32"}, "T": {"type": "DT_FLOAT"}}}, {"name": "PartitionedCall/convolution", "op": "Conv2D", "input": ["PartitionedCall/transpose_2", "PartitionedCall/split"], "device": "/device:CPU:0", "attr": {"padding": {"s": "VkFMSUQ="}, "dilations": {"list": {"i": ["1", "1", "1", "1"]}}, "T": {"type": "DT_FLOAT"}, "explicit_paddings": {"list": {}}, "use_cudnn_on_gpu": {"b": true}, "data_format": {"s": "TkhXQw=="}, "strides": {"list": {"i": ["1", "1", "1", "1"]}}}}, {"name": "PartitionedCall/Add_3", "op": "Add", "input": ["PartitionedCall/convolution", "unknown_10"], "attr": {"T": {"type": "DT_FLOAT"}}}, {"name": "PartitionedCall/transpose_3", "op": "Transpose", "input": ["PartitionedCall/Add_3", "PartitionedCall/transpose_3/perm"], "attr": {"Tperm": {"type": "DT_INT32"}, "T": {"type": "DT_FLOAT"}}}, {"name": "PartitionedCall/onnx_tf_prefix_Mul_34", "op": "Mul", "input": ["PartitionedCall/transpose_3", "unknown_11"], "attr": {"T": {"type": "DT_FLOAT"}}}, {"name": "PartitionedCall/onnx_tf_prefix_LeakyRelu_35", "op": "LeakyRelu", "input": ["PartitionedCall/onnx_tf_prefix_Mul_34"], "attr": {"alpha": {"f": 0.2}, "T": {"type": "DT_FLOAT"}}}, {"name": "PartitionedCall/onnx_tf_prefix_Pow_36", "op": "Square", "input": ["PartitionedCall/onnx_tf_prefix_LeakyRelu_35"], "attr": {"T": {"type": "DT_FLOAT"}}}, {"name": "PartitionedCall/onnx_tf_prefix_ReduceMean_37", "op": "Mean", "input": ["PartitionedCall/onnx_tf_prefix_Pow_36", "PartitionedCall/onnx_tf_prefix_ReduceMean_37/reduction_indices"], "attr": {"T": {"type": "DT_FLOAT"}, "Tidx": {"type": "DT_INT32"}, "keep_dims": {"b": true}}}, {"name": "PartitionedCall/onnx_tf_prefix_Add_39", "op": "Add", "input": ["PartitionedCall/onnx_tf_prefix_ReduceMean_37", "PartitionedCall/onnx_tf_prefix_Constant_38"], "attr": {"T": {"type": "DT_FLOAT"}}}, {"name": "PartitionedCall/onnx_tf_prefix_Sqrt_40", "op": "Sqrt", "input": ["PartitionedCall/onnx_tf_prefix_Add_39"], "attr": {"T": {"type": "DT_FLOAT"}}}, {"name": "PartitionedCall/onnx_tf_prefix_Div_42", "op": "Reciprocal", "input": ["PartitionedCall/onnx_tf_prefix_Sqrt_40"], "attr": {"T": {"type": "DT_FLOAT"}}}, {"name": "PartitionedCall/onnx_tf_prefix_Mul_43", "op": "Mul", "input": ["PartitionedCall/onnx_tf_prefix_LeakyRelu_35", "PartitionedCall/onnx_tf_prefix_Div_42"], "attr": {"T": {"type": "DT_FLOAT"}}}, {"name": "PartitionedCall/onnx_tf_prefix_Reshape_57", "op": "Reshape", "input": ["PartitionedCall/onnx_tf_prefix_Mul_43", "PartitionedCall/add_4"], "attr": {"T": {"type": "DT_FLOAT"}, "Tshape": {"type": "DT_INT64"}}}, {"name": "PartitionedCall/mul_2", "op": "Mul", "input": ["PartitionedCall/onnx_tf_prefix_Reshape_57", "PartitionedCall/ones"], "attr": {"T": {"type": "DT_FLOAT"}}}, {"name": "PartitionedCall/onnx_tf_prefix_Reshape_79", "op": "Reshape", "input": ["PartitionedCall/mul_2", "PartitionedCall/add_6"], "attr": {"Tshape": {"type": "DT_INT64"}, "T": {"type": "DT_FLOAT"}}}, {"name": "PartitionedCall/Pad_1", "op": "Pad", "input": ["PartitionedCall/onnx_tf_prefix_Reshape_79", "PartitionedCall/Const_7"], "attr": {"T": {"type": "DT_FLOAT"}, "Tpaddings": {"type": "DT_INT32"}}}, {"name": "PartitionedCall/transpose_5", "op": "Transpose", "input": ["PartitionedCall/Pad_1", "PartitionedCall/transpose_5/perm"], "attr": {"Tperm": {"type": "DT_INT32"}, "T": {"type": "DT_FLOAT"}}}, {"name": "PartitionedCall/convolution_1", "op": "Conv2D", "input": ["PartitionedCall/transpose_5", "PartitionedCall/split_1"], "device": "/device:CPU:0", "attr": {"dilations": {"list": {"i": ["1", "1", "1", "1"]}}, "data_format": {"s": "TkhXQw=="}, "explicit_paddings": {"list": {}}, "T": {"type": "DT_FLOAT"}, "strides": {"list": {"i": ["1", "1", "1", "1"]}}, "use_cudnn_on_gpu": {"b": true}, "padding": {"s": "VkFMSUQ="}}}, {"name": "PartitionedCall/Add_7", "op": "Add", "input": ["PartitionedCall/convolution_1", "unknown_21"], "attr": {"T": {"type": "DT_FLOAT"}}}, {"name": "PartitionedCall/transpose_6", "op": "Transpose", "input": ["PartitionedCall/Add_7", "PartitionedCall/transpose_6/perm"], "attr": {"Tperm": {"type": "DT_INT32"}, "T": {"type": "DT_FLOAT"}}}, {"name": "PartitionedCall/onnx_tf_prefix_Mul_81", "op": "Mul", "input": ["PartitionedCall/transpose_6", "unknown_22"], "attr": {"T": {"type": "DT_FLOAT"}}}, {"name": "PartitionedCall/onnx_tf_prefix_LeakyRelu_82", "op": "LeakyRelu", "input": ["PartitionedCall/onnx_tf_prefix_Mul_81"], "attr": {"T": {"type": "DT_FLOAT"}, "alpha": {"f": 0.2}}}, {"name": "PartitionedCall/onnx_tf_prefix_Pow_83", "op": "Square", "input": ["PartitionedCall/onnx_tf_prefix_LeakyRelu_82"], "attr": {"T": {"type": "DT_FLOAT"}}}, {"name": "PartitionedCall/onnx_tf_prefix_ReduceMean_84", "op": "Mean", "input": ["PartitionedCall/onnx_tf_prefix_Pow_83", "PartitionedCall/onnx_tf_prefix_ReduceMean_84/reduction_indices"], "attr": {"Tidx": {"type": "DT_INT32"}, "keep_dims": {"b": true}, "T": {"type": "DT_FLOAT"}}}, {"name": "PartitionedCall/onnx_tf_prefix_Add_86", "op": "Add", "input": ["PartitionedCall/onnx_tf_prefix_ReduceMean_84", "PartitionedCall/onnx_tf_prefix_Constant_85"], "attr": {"T": {"type": "DT_FLOAT"}}}, {"name": "PartitionedCall/onnx_tf_prefix_Sqrt_87", "op": "Sqrt", "input": ["PartitionedCall/onnx_tf_prefix_Add_86"], "attr": {"T": {"type": "DT_FLOAT"}}}, {"name": "PartitionedCall/onnx_tf_prefix_Div_89", "op": "Reciprocal", "input": ["PartitionedCall/onnx_tf_prefix_Sqrt_87"], "attr": {"T": {"type": "DT_FLOAT"}}}, {"name": "PartitionedCall/onnx_tf_prefix_Mul_90", "op": "Mul", "input": ["PartitionedCall/onnx_tf_prefix_LeakyRelu_82", "PartitionedCall/onnx_tf_prefix_Div_89"], "attr": {"T": {"type": "DT_FLOAT"}}}, {"name": "PartitionedCall/Pad_2", "op": "Pad", "input": ["PartitionedCall/onnx_tf_prefix_Mul_90", "PartitionedCall/Const_9"], "attr": {"T": {"type": "DT_FLOAT"}, "Tpaddings": {"type": "DT_INT32"}}}, {"name": "PartitionedCall/transpose_8", "op": "Transpose", "input": ["PartitionedCall/Pad_2", "PartitionedCall/transpose_8/perm"], "attr": {"Tperm": {"type": "DT_INT32"}, "T": {"type": "DT_FLOAT"}}}, {"name": "PartitionedCall/convolution_2", "op": "Conv2D", "input": ["PartitionedCall/transpose_8", "PartitionedCall/split_2"], "device": "/device:CPU:0", "attr": {"use_cudnn_on_gpu": {"b": true}, "padding": {"s": "VkFMSUQ="}, "T": {"type": "DT_FLOAT"}, "dilations": {"list": {"i": ["1", "1", "1", "1"]}}, "explicit_paddings": {"list": {}}, "data_format": {"s": "TkhXQw=="}, "strides": {"list": {"i": ["1", "1", "1", "1"]}}}}, {"name": "PartitionedCall/Add_8", "op": "Add", "input": ["PartitionedCall/convolution_2", "unknown_25"], "attr": {"T": {"type": "DT_FLOAT"}}}, {"name": "PartitionedCall/transpose_9", "op": "Transpose", "input": ["PartitionedCall/Add_8", "PartitionedCall/transpose_9/perm"], "attr": {"Tperm": {"type": "DT_INT32"}, "T": {"type": "DT_FLOAT"}}}, {"name": "PartitionedCall/onnx_tf_prefix_Mul_92", "op": "Mul", "input": ["PartitionedCall/transpose_9", "unknown_26"], "attr": {"T": {"type": "DT_FLOAT"}}}, {"name": "PartitionedCall/onnx_tf_prefix_LeakyRelu_93", "op": "LeakyRelu", "input": ["PartitionedCall/onnx_tf_prefix_Mul_92"], "attr": {"T": {"type": "DT_FLOAT"}, "alpha": {"f": 0.2}}}, {"name": "PartitionedCall/onnx_tf_prefix_Pow_94", "op": "Square", "input": ["PartitionedCall/onnx_tf_prefix_LeakyRelu_93"], "attr": {"T": {"type": "DT_FLOAT"}}}, {"name": "PartitionedCall/onnx_tf_prefix_ReduceMean_95", "op": "Mean", "input": ["PartitionedCall/onnx_tf_prefix_Pow_94", "PartitionedCall/onnx_tf_prefix_ReduceMean_95/reduction_indices"], "attr": {"keep_dims": {"b": true}, "T": {"type": "DT_FLOAT"}, "Tidx": {"type": "DT_INT32"}}}, {"name": "PartitionedCall/onnx_tf_prefix_Add_97", "op": "Add", "input": ["PartitionedCall/onnx_tf_prefix_ReduceMean_95", "PartitionedCall/onnx_tf_prefix_Constant_96"], "attr": {"T": {"type": "DT_FLOAT"}}}, {"name": "PartitionedCall/onnx_tf_prefix_Sqrt_98", "op": "Sqrt", "input": ["PartitionedCall/onnx_tf_prefix_Add_97"], "attr": {"T": {"type": "DT_FLOAT"}}}, {"name": "PartitionedCall/onnx_tf_prefix_Div_100", "op": "Reciprocal", "input": ["PartitionedCall/onnx_tf_prefix_Sqrt_98"], "attr": {"T": {"type": "DT_FLOAT"}}}, {"name": "PartitionedCall/onnx_tf_prefix_Mul_101", "op": "Mul", "input": ["PartitionedCall/onnx_tf_prefix_LeakyRelu_93", "PartitionedCall/onnx_tf_prefix_Div_100"], "attr": {"T": {"type": "DT_FLOAT"}}}, {"name": "PartitionedCall/onnx_tf_prefix_Reshape_115", "op": "Reshape", "input": ["PartitionedCall/onnx_tf_prefix_Mul_101", "PartitionedCall/add_9"], "attr": {"T": {"type": "DT_FLOAT"}, "Tshape": {"type": "DT_INT64"}}}, {"name": "PartitionedCall/mul_3", "op": "Mul", "input": ["PartitionedCall/onnx_tf_prefix_Reshape_115", "PartitionedCall/ones_1"], "attr": {"T": {"type": "DT_FLOAT"}}}, {"name": "PartitionedCall/onnx_tf_prefix_Reshape_137", "op": "Reshape", "input": ["PartitionedCall/mul_3", "PartitionedCall/add_11"], "attr": {"T": {"type": "DT_FLOAT"}, "Tshape": {"type": "DT_INT64"}}}, {"name": "PartitionedCall/Pad_3", "op": "Pad", "input": ["PartitionedCall/onnx_tf_prefix_Reshape_137", "PartitionedCall/Const_14"], "attr": {"Tpaddings": {"type": "DT_INT32"}, "T": {"type": "DT_FLOAT"}}}, {"name": "PartitionedCall/transpose_11", "op": "Transpose", "input": ["PartitionedCall/Pad_3", "PartitionedCall/transpose_11/perm"], "attr": {"T": {"type": "DT_FLOAT"}, "Tperm": {"type": "DT_INT32"}}}, {"name": "PartitionedCall/convolution_3", "op": "Conv2D", "input": ["PartitionedCall/transpose_11", "PartitionedCall/split_3"], "device": "/device:CPU:0", "attr": {"strides": {"list": {"i": ["1", "1", "1", "1"]}}, "data_format": {"s": "TkhXQw=="}, "use_cudnn_on_gpu": {"b": true}, "dilations": {"list": {"i": ["1", "1", "1", "1"]}}, "explicit_paddings": {"list": {}}, "padding": {"s": "VkFMSUQ="}, "T": {"type": "DT_FLOAT"}}}, {"name": "PartitionedCall/Add_12", "op": "Add", "input": ["PartitionedCall/convolution_3", "unknown_36"], "attr": {"T": {"type": "DT_FLOAT"}}}, {"name": "PartitionedCall/transpose_12", "op": "Transpose", "input": ["PartitionedCall/Add_12", "PartitionedCall/transpose_12/perm"], "attr": {"Tperm": {"type": "DT_INT32"}, "T": {"type": "DT_FLOAT"}}}, {"name": "PartitionedCall/onnx_tf_prefix_Mul_139", "op": "Mul", "input": ["PartitionedCall/transpose_12", "unknown_37"], "attr": {"T": {"type": "DT_FLOAT"}}}, {"name": "PartitionedCall/onnx_tf_prefix_LeakyRelu_140", "op": "LeakyRelu", "input": ["PartitionedCall/onnx_tf_prefix_Mul_139"], "attr": {"alpha": {"f": 0.2}, "T": {"type": "DT_FLOAT"}}}, {"name": "PartitionedCall/onnx_tf_prefix_Pow_141", "op": "Square", "input": ["PartitionedCall/onnx_tf_prefix_LeakyRelu_140"], "attr": {"T": {"type": "DT_FLOAT"}}}, {"name": "PartitionedCall/onnx_tf_prefix_ReduceMean_142", "op": "Mean", "input": ["PartitionedCall/onnx_tf_prefix_Pow_141", "PartitionedCall/onnx_tf_prefix_ReduceMean_142/reduction_indices"], "attr": {"keep_dims": {"b": true}, "T": {"type": "DT_FLOAT"}, "Tidx": {"type": "DT_INT32"}}}, {"name": "PartitionedCall/onnx_tf_prefix_Add_144", "op": "Add", "input": ["PartitionedCall/onnx_tf_prefix_ReduceMean_142", "PartitionedCall/onnx_tf_prefix_Constant_143"], "attr": {"T": {"type": "DT_FLOAT"}}}, {"name": "PartitionedCall/onnx_tf_prefix_Sqrt_145", "op": "Sqrt", "input": ["PartitionedCall/onnx_tf_prefix_Add_144"], "attr": {"T": {"type": "DT_FLOAT"}}}, {"name": "PartitionedCall/onnx_tf_prefix_Div_147", "op": "Reciprocal", "input": ["PartitionedCall/onnx_tf_prefix_Sqrt_145"], "attr": {"T": {"type": "DT_FLOAT"}}}, {"name": "PartitionedCall/onnx_tf_prefix_Mul_148", "op": "Mul", "input": ["PartitionedCall/onnx_tf_prefix_LeakyRelu_140", "PartitionedCall/onnx_tf_prefix_Div_147"], "attr": {"T": {"type": "DT_FLOAT"}}}, {"name": "PartitionedCall/Pad_4", "op": "Pad", "input": ["PartitionedCall/onnx_tf_prefix_Mul_148", "PartitionedCall/Const_16"], "attr": {"Tpaddings": {"type": "DT_INT32"}, "T": {"type": "DT_FLOAT"}}}, {"name": "PartitionedCall/transpose_14", "op": "Transpose", "input": ["PartitionedCall/Pad_4", "PartitionedCall/transpose_14/perm"], "attr": {"Tperm": {"type": "DT_INT32"}, "T": {"type": "DT_FLOAT"}}}, {"name": "PartitionedCall/convolution_4", "op": "Conv2D", "input": ["PartitionedCall/transpose_14", "PartitionedCall/split_4"], "device": "/device:CPU:0", "attr": {"T": {"type": "DT_FLOAT"}, "explicit_paddings": {"list": {}}, "dilations": {"list": {"i": ["1", "1", "1", "1"]}}, "data_format": {"s": "TkhXQw=="}, "strides": {"list": {"i": ["1", "1", "1", "1"]}}, "padding": {"s": "VkFMSUQ="}, "use_cudnn_on_gpu": {"b": true}}}, {"name": "PartitionedCall/Add_13", "op": "Add", "input": ["PartitionedCall/convolution_4", "unknown_40"], "attr": {"T": {"type": "DT_FLOAT"}}}, {"name": "PartitionedCall/transpose_15", "op": "Transpose", "input": ["PartitionedCall/Add_13", "PartitionedCall/transpose_15/perm"], "attr": {"T": {"type": "DT_FLOAT"}, "Tperm": {"type": "DT_INT32"}}}, {"name": "PartitionedCall/onnx_tf_prefix_Mul_150", "op": "Mul", "input": ["PartitionedCall/transpose_15", "unknown_41"], "attr": {"T": {"type": "DT_FLOAT"}}}, {"name": "PartitionedCall/onnx_tf_prefix_LeakyRelu_151", "op": "LeakyRelu", "input": ["PartitionedCall/onnx_tf_prefix_Mul_150"], "attr": {"T": {"type": "DT_FLOAT"}, "alpha": {"f": 0.2}}}, {"name": "PartitionedCall/onnx_tf_prefix_Pow_152", "op": "Square", "input": ["PartitionedCall/onnx_tf_prefix_LeakyRelu_151"], "attr": {"T": {"type": "DT_FLOAT"}}}, {"name": "PartitionedCall/onnx_tf_prefix_ReduceMean_153", "op": "Mean", "input": ["PartitionedCall/onnx_tf_prefix_Pow_152", "PartitionedCall/onnx_tf_prefix_ReduceMean_153/reduction_indices"], "attr": {"T": {"type": "DT_FLOAT"}, "keep_dims": {"b": true}, "Tidx": {"type": "DT_INT32"}}}, {"name": "PartitionedCall/onnx_tf_prefix_Add_155", "op": "Add", "input": ["PartitionedCall/onnx_tf_prefix_ReduceMean_153", "PartitionedCall/onnx_tf_prefix_Constant_154"], "attr": {"T": {"type": "DT_FLOAT"}}}, {"name": "PartitionedCall/onnx_tf_prefix_Sqrt_156", "op": "Sqrt", "input": ["PartitionedCall/onnx_tf_prefix_Add_155"], "attr": {"T": {"type": "DT_FLOAT"}}}, {"name": "PartitionedCall/onnx_tf_prefix_Div_158", "op": "Reciprocal", "input": ["PartitionedCall/onnx_tf_prefix_Sqrt_156"], "attr": {"T": {"type": "DT_FLOAT"}}}, {"name": "PartitionedCall/onnx_tf_prefix_Mul_159", "op": "Mul", "input": ["PartitionedCall/onnx_tf_prefix_LeakyRelu_151", "PartitionedCall/onnx_tf_prefix_Div_158"], "attr": {"T": {"type": "DT_FLOAT"}}}, {"name": "PartitionedCall/onnx_tf_prefix_Reshape_173", "op": "Reshape", "input": ["PartitionedCall/onnx_tf_prefix_Mul_159", "PartitionedCall/add_14"], "attr": {"T": {"type": "DT_FLOAT"}, "Tshape": {"type": "DT_INT64"}}}, {"name": "PartitionedCall/mul_4", "op": "Mul", "input": ["PartitionedCall/onnx_tf_prefix_Reshape_173", "PartitionedCall/ones_2"], "attr": {"T": {"type": "DT_FLOAT"}}}, {"name": "PartitionedCall/onnx_tf_prefix_Reshape_195", "op": "Reshape", "input": ["PartitionedCall/mul_4", "PartitionedCall/add_16"], "attr": {"T": {"type": "DT_FLOAT"}, "Tshape": {"type": "DT_INT64"}}}, {"name": "PartitionedCall/Pad_5", "op": "Pad", "input": ["PartitionedCall/onnx_tf_prefix_Reshape_195", "PartitionedCall/Const_21"], "attr": {"Tpaddings": {"type": "DT_INT32"}, "T": {"type": "DT_FLOAT"}}}, {"name": "PartitionedCall/transpose_17", "op": "Transpose", "input": ["PartitionedCall/Pad_5", "PartitionedCall/transpose_17/perm"], "attr": {"T": {"type": "DT_FLOAT"}, "Tperm": {"type": "DT_INT32"}}}, {"name": "PartitionedCall/convolution_5", "op": "Conv2D", "input": ["PartitionedCall/transpose_17", "PartitionedCall/split_5"], "device": "/device:CPU:0", "attr": {"T": {"type": "DT_FLOAT"}, "padding": {"s": "VkFMSUQ="}, "use_cudnn_on_gpu": {"b": true}, "explicit_paddings": {"list": {}}, "data_format": {"s": "TkhXQw=="}, "dilations": {"list": {"i": ["1", "1", "1", "1"]}}, "strides": {"list": {"i": ["1", "1", "1", "1"]}}}}, {"name": "PartitionedCall/Add_17", "op": "Add", "input": ["PartitionedCall/convolution_5", "unknown_51"], "attr": {"T": {"type": "DT_FLOAT"}}}, {"name": "PartitionedCall/transpose_18", "op": "Transpose", "input": ["PartitionedCall/Add_17", "PartitionedCall/transpose_18/perm"], "attr": {"Tperm": {"type": "DT_INT32"}, "T": {"type": "DT_FLOAT"}}}, {"name": "PartitionedCall/onnx_tf_prefix_Mul_197", "op": "Mul", "input": ["PartitionedCall/transpose_18", "unknown_52"], "attr": {"T": {"type": "DT_FLOAT"}}}, {"name": "PartitionedCall/onnx_tf_prefix_LeakyRelu_198", "op": "LeakyRelu", "input": ["PartitionedCall/onnx_tf_prefix_Mul_197"], "attr": {"T": {"type": "DT_FLOAT"}, "alpha": {"f": 0.2}}}, {"name": "PartitionedCall/onnx_tf_prefix_Pow_199", "op": "Square", "input": ["PartitionedCall/onnx_tf_prefix_LeakyRelu_198"], "attr": {"T": {"type": "DT_FLOAT"}}}, {"name": "PartitionedCall/onnx_tf_prefix_ReduceMean_200", "op": "Mean", "input": ["PartitionedCall/onnx_tf_prefix_Pow_199", "PartitionedCall/onnx_tf_prefix_ReduceMean_200/reduction_indices"], "attr": {"keep_dims": {"b": true}, "T": {"type": "DT_FLOAT"}, "Tidx": {"type": "DT_INT32"}}}, {"name": "PartitionedCall/onnx_tf_prefix_Add_202", "op": "Add", "input": ["PartitionedCall/onnx_tf_prefix_ReduceMean_200", "PartitionedCall/onnx_tf_prefix_Constant_201"], "attr": {"T": {"type": "DT_FLOAT"}}}, {"name": "PartitionedCall/onnx_tf_prefix_Sqrt_203", "op": "Sqrt", "input": ["PartitionedCall/onnx_tf_prefix_Add_202"], "attr": {"T": {"type": "DT_FLOAT"}}}, {"name": "PartitionedCall/onnx_tf_prefix_Div_205", "op": "Reciprocal", "input": ["PartitionedCall/onnx_tf_prefix_Sqrt_203"], "attr": {"T": {"type": "DT_FLOAT"}}}, {"name": "PartitionedCall/onnx_tf_prefix_Mul_206", "op": "Mul", "input": ["PartitionedCall/onnx_tf_prefix_LeakyRelu_198", "PartitionedCall/onnx_tf_prefix_Div_205"], "attr": {"T": {"type": "DT_FLOAT"}}}, {"name": "PartitionedCall/Pad_6", "op": "Pad", "input": ["PartitionedCall/onnx_tf_prefix_Mul_206", "PartitionedCall/Const_23"], "attr": {"T": {"type": "DT_FLOAT"}, "Tpaddings": {"type": "DT_INT32"}}}, {"name": "PartitionedCall/transpose_20", "op": "Transpose", "input": ["PartitionedCall/Pad_6", "PartitionedCall/transpose_20/perm"], "attr": {"Tperm": {"type": "DT_INT32"}, "T": {"type": "DT_FLOAT"}}}, {"name": "PartitionedCall/convolution_6", "op": "Conv2D", "input": ["PartitionedCall/transpose_20", "PartitionedCall/split_6"], "device": "/device:CPU:0", "attr": {"strides": {"list": {"i": ["1", "1", "1", "1"]}}, "use_cudnn_on_gpu": {"b": true}, "dilations": {"list": {"i": ["1", "1", "1", "1"]}}, "T": {"type": "DT_FLOAT"}, "data_format": {"s": "TkhXQw=="}, "explicit_paddings": {"list": {}}, "padding": {"s": "VkFMSUQ="}}}, {"name": "PartitionedCall/Add_18", "op": "Add", "input": ["PartitionedCall/convolution_6", "unknown_55"], "attr": {"T": {"type": "DT_FLOAT"}}}, {"name": "PartitionedCall/transpose_21", "op": "Transpose", "input": ["PartitionedCall/Add_18", "PartitionedCall/transpose_21/perm"], "attr": {"Tperm": {"type": "DT_INT32"}, "T": {"type": "DT_FLOAT"}}}, {"name": "PartitionedCall/onnx_tf_prefix_Mul_208", "op": "Mul", "input": ["PartitionedCall/transpose_21", "unknown_56"], "attr": {"T": {"type": "DT_FLOAT"}}}, {"name": "PartitionedCall/onnx_tf_prefix_LeakyRelu_209", "op": "LeakyRelu", "input": ["PartitionedCall/onnx_tf_prefix_Mul_208"], "attr": {"alpha": {"f": 0.2}, "T": {"type": "DT_FLOAT"}}}, {"name": "PartitionedCall/onnx_tf_prefix_Pow_210", "op": "Square", "input": ["PartitionedCall/onnx_tf_prefix_LeakyRelu_209"], "attr": {"T": {"type": "DT_FLOAT"}}}, {"name": "PartitionedCall/onnx_tf_prefix_ReduceMean_211", "op": "Mean", "input": ["PartitionedCall/onnx_tf_prefix_Pow_210", "PartitionedCall/onnx_tf_prefix_ReduceMean_211/reduction_indices"], "attr": {"T": {"type": "DT_FLOAT"}, "Tidx": {"type": "DT_INT32"}, "keep_dims": {"b": true}}}, {"name": "PartitionedCall/onnx_tf_prefix_Add_213", "op": "Add", "input": ["PartitionedCall/onnx_tf_prefix_ReduceMean_211", "PartitionedCall/onnx_tf_prefix_Constant_212"], "attr": {"T": {"type": "DT_FLOAT"}}}, {"name": "PartitionedCall/onnx_tf_prefix_Sqrt_214", "op": "Sqrt", "input": ["PartitionedCall/onnx_tf_prefix_Add_213"], "attr": {"T": {"type": "DT_FLOAT"}}}, {"name": "PartitionedCall/onnx_tf_prefix_Div_216", "op": "Reciprocal", "input": ["PartitionedCall/onnx_tf_prefix_Sqrt_214"], "attr": {"T": {"type": "DT_FLOAT"}}}, {"name": "PartitionedCall/onnx_tf_prefix_Mul_217", "op": "Mul", "input": ["PartitionedCall/onnx_tf_prefix_LeakyRelu_209", "PartitionedCall/onnx_tf_prefix_Div_216"], "attr": {"T": {"type": "DT_FLOAT"}}}, {"name": "PartitionedCall/onnx_tf_prefix_Reshape_231", "op": "Reshape", "input": ["PartitionedCall/onnx_tf_prefix_Mul_217", "PartitionedCall/add_19"], "attr": {"Tshape": {"type": "DT_INT64"}, "T": {"type": "DT_FLOAT"}}}, {"name": "PartitionedCall/mul_5", "op": "Mul", "input": ["PartitionedCall/onnx_tf_prefix_Reshape_231", "PartitionedCall/ones_3"], "attr": {"T": {"type": "DT_FLOAT"}}}, {"name": "PartitionedCall/onnx_tf_prefix_Reshape_253", "op": "Reshape", "input": ["PartitionedCall/mul_5", "PartitionedCall/add_21"], "attr": {"T": {"type": "DT_FLOAT"}, "Tshape": {"type": "DT_INT64"}}}, {"name": "PartitionedCall/Pad_7", "op": "Pad", "input": ["PartitionedCall/onnx_tf_prefix_Reshape_253", "PartitionedCall/Const_28"], "attr": {"Tpaddings": {"type": "DT_INT32"}, "T": {"type": "DT_FLOAT"}}}, {"name": "PartitionedCall/transpose_23", "op": "Transpose", "input": ["PartitionedCall/Pad_7", "PartitionedCall/transpose_23/perm"], "attr": {"T": {"type": "DT_FLOAT"}, "Tperm": {"type": "DT_INT32"}}}, {"name": "PartitionedCall/convolution_7", "op": "Conv2D", "input": ["PartitionedCall/transpose_23", "PartitionedCall/split_7"], "device": "/device:CPU:0", "attr": {"T": {"type": "DT_FLOAT"}, "padding": {"s": "VkFMSUQ="}, "explicit_paddings": {"list": {}}, "strides": {"list": {"i": ["1", "1", "1", "1"]}}, "dilations": {"list": {"i": ["1", "1", "1", "1"]}}, "data_format": {"s": "TkhXQw=="}, "use_cudnn_on_gpu": {"b": true}}}, {"name": "PartitionedCall/Add_22", "op": "Add", "input": ["PartitionedCall/convolution_7", "unknown_66"], "attr": {"T": {"type": "DT_FLOAT"}}}, {"name": "PartitionedCall/transpose_24", "op": "Transpose", "input": ["PartitionedCall/Add_22", "PartitionedCall/transpose_24/perm"], "attr": {"T": {"type": "DT_FLOAT"}, "Tperm": {"type": "DT_INT32"}}}, {"name": "PartitionedCall/onnx_tf_prefix_Mul_255", "op": "Mul", "input": ["PartitionedCall/transpose_24", "unknown_67"], "attr": {"T": {"type": "DT_FLOAT"}}}, {"name": "PartitionedCall/onnx_tf_prefix_LeakyRelu_256", "op": "LeakyRelu", "input": ["PartitionedCall/onnx_tf_prefix_Mul_255"], "attr": {"T": {"type": "DT_FLOAT"}, "alpha": {"f": 0.2}}}, {"name": "PartitionedCall/onnx_tf_prefix_Pow_257", "op": "Square", "input": ["PartitionedCall/onnx_tf_prefix_LeakyRelu_256"], "attr": {"T": {"type": "DT_FLOAT"}}}, {"name": "PartitionedCall/onnx_tf_prefix_ReduceMean_258", "op": "Mean", "input": ["PartitionedCall/onnx_tf_prefix_Pow_257", "PartitionedCall/onnx_tf_prefix_ReduceMean_258/reduction_indices"], "attr": {"T": {"type": "DT_FLOAT"}, "Tidx": {"type": "DT_INT32"}, "keep_dims": {"b": true}}}, {"name": "PartitionedCall/onnx_tf_prefix_Add_260", "op": "Add", "input": ["PartitionedCall/onnx_tf_prefix_ReduceMean_258", "PartitionedCall/onnx_tf_prefix_Constant_259"], "attr": {"T": {"type": "DT_FLOAT"}}}, {"name": "PartitionedCall/onnx_tf_prefix_Sqrt_261", "op": "Sqrt", "input": ["PartitionedCall/onnx_tf_prefix_Add_260"], "attr": {"T": {"type": "DT_FLOAT"}}}, {"name": "PartitionedCall/onnx_tf_prefix_Div_263", "op": "Reciprocal", "input": ["PartitionedCall/onnx_tf_prefix_Sqrt_261"], "attr": {"T": {"type": "DT_FLOAT"}}}, {"name": "PartitionedCall/onnx_tf_prefix_Mul_264", "op": "Mul", "input": ["PartitionedCall/onnx_tf_prefix_LeakyRelu_256", "PartitionedCall/onnx_tf_prefix_Div_263"], "attr": {"T": {"type": "DT_FLOAT"}}}, {"name": "PartitionedCall/Pad_8", "op": "Pad", "input": ["PartitionedCall/onnx_tf_prefix_Mul_264", "PartitionedCall/Const_30"], "attr": {"T": {"type": "DT_FLOAT"}, "Tpaddings": {"type": "DT_INT32"}}}, {"name": "PartitionedCall/transpose_26", "op": "Transpose", "input": ["PartitionedCall/Pad_8", "PartitionedCall/transpose_26/perm"], "attr": {"T": {"type": "DT_FLOAT"}, "Tperm": {"type": "DT_INT32"}}}, {"name": "PartitionedCall/convolution_8", "op": "Conv2D", "input": ["PartitionedCall/transpose_26", "PartitionedCall/split_8"], "device": "/device:CPU:0", "attr": {"explicit_paddings": {"list": {}}, "strides": {"list": {"i": ["1", "1", "1", "1"]}}, "use_cudnn_on_gpu": {"b": true}, "padding": {"s": "VkFMSUQ="}, "data_format": {"s": "TkhXQw=="}, "dilations": {"list": {"i": ["1", "1", "1", "1"]}}, "T": {"type": "DT_FLOAT"}}}, {"name": "PartitionedCall/Add_23", "op": "Add", "input": ["PartitionedCall/convolution_8", "unknown_70"], "attr": {"T": {"type": "DT_FLOAT"}}}, {"name": "PartitionedCall/transpose_27", "op": "Transpose", "input": ["PartitionedCall/Add_23", "PartitionedCall/transpose_27/perm"], "attr": {"Tperm": {"type": "DT_INT32"}, "T": {"type": "DT_FLOAT"}}}, {"name": "PartitionedCall/onnx_tf_prefix_Mul_266", "op": "Mul", "input": ["PartitionedCall/transpose_27", "unknown_71"], "attr": {"T": {"type": "DT_FLOAT"}}}, {"name": "PartitionedCall/onnx_tf_prefix_LeakyRelu_267", "op": "LeakyRelu", "input": ["PartitionedCall/onnx_tf_prefix_Mul_266"], "attr": {"alpha": {"f": 0.2}, "T": {"type": "DT_FLOAT"}}}, {"name": "PartitionedCall/onnx_tf_prefix_Pow_268", "op": "Square", "input": ["PartitionedCall/onnx_tf_prefix_LeakyRelu_267"], "attr": {"T": {"type": "DT_FLOAT"}}}, {"name": "PartitionedCall/onnx_tf_prefix_ReduceMean_269", "op": "Mean", "input": ["PartitionedCall/onnx_tf_prefix_Pow_268", "PartitionedCall/onnx_tf_prefix_ReduceMean_269/reduction_indices"], "attr": {"keep_dims": {"b": true}, "T": {"type": "DT_FLOAT"}, "Tidx": {"type": "DT_INT32"}}}, {"name": "PartitionedCall/onnx_tf_prefix_Add_271", "op": "Add", "input": ["PartitionedCall/onnx_tf_prefix_ReduceMean_269", "PartitionedCall/onnx_tf_prefix_Constant_270"], "attr": {"T": {"type": "DT_FLOAT"}}}, {"name": "PartitionedCall/onnx_tf_prefix_Sqrt_272", "op": "Sqrt", "input": ["PartitionedCall/onnx_tf_prefix_Add_271"], "attr": {"T": {"type": "DT_FLOAT"}}}, {"name": "PartitionedCall/onnx_tf_prefix_Div_274", "op": "Reciprocal", "input": ["PartitionedCall/onnx_tf_prefix_Sqrt_272"], "attr": {"T": {"type": "DT_FLOAT"}}}, {"name": "PartitionedCall/onnx_tf_prefix_Mul_275", "op": "Mul", "input": ["PartitionedCall/onnx_tf_prefix_LeakyRelu_267", "PartitionedCall/onnx_tf_prefix_Div_274"], "attr": {"T": {"type": "DT_FLOAT"}}}, {"name": "PartitionedCall/onnx_tf_prefix_Reshape_289", "op": "Reshape", "input": ["PartitionedCall/onnx_tf_prefix_Mul_275", "PartitionedCall/add_24"], "attr": {"Tshape": {"type": "DT_INT64"}, "T": {"type": "DT_FLOAT"}}}, {"name": "PartitionedCall/mul_6", "op": "Mul", "input": ["PartitionedCall/onnx_tf_prefix_Reshape_289", "PartitionedCall/ones_4"], "attr": {"T": {"type": "DT_FLOAT"}}}, {"name": "PartitionedCall/onnx_tf_prefix_Reshape_311", "op": "Reshape", "input": ["PartitionedCall/mul_6", "PartitionedCall/add_26"], "attr": {"Tshape": {"type": "DT_INT64"}, "T": {"type": "DT_FLOAT"}}}, {"name": "PartitionedCall/Pad_9", "op": "Pad", "input": ["PartitionedCall/onnx_tf_prefix_Reshape_311", "PartitionedCall/Const_35"], "attr": {"Tpaddings": {"type": "DT_INT32"}, "T": {"type": "DT_FLOAT"}}}, {"name": "PartitionedCall/transpose_29", "op": "Transpose", "input": ["PartitionedCall/Pad_9", "PartitionedCall/transpose_29/perm"], "attr": {"Tperm": {"type": "DT_INT32"}, "T": {"type": "DT_FLOAT"}}}, {"name": "PartitionedCall/convolution_9", "op": "Conv2D", "input": ["PartitionedCall/transpose_29", "PartitionedCall/split_9"], "device": "/device:CPU:0", "attr": {"dilations": {"list": {"i": ["1", "1", "1", "1"]}}, "explicit_paddings": {"list": {}}, "use_cudnn_on_gpu": {"b": true}, "strides": {"list": {"i": ["1", "1", "1", "1"]}}, "padding": {"s": "VkFMSUQ="}, "T": {"type": "DT_FLOAT"}, "data_format": {"s": "TkhXQw=="}}}, {"name": "PartitionedCall/Add_27", "op": "Add", "input": ["PartitionedCall/convolution_9", "unknown_81"], "attr": {"T": {"type": "DT_FLOAT"}}}, {"name": "PartitionedCall/transpose_30", "op": "Transpose", "input": ["PartitionedCall/Add_27", "PartitionedCall/transpose_30/perm"], "attr": {"T": {"type": "DT_FLOAT"}, "Tperm": {"type": "DT_INT32"}}}, {"name": "PartitionedCall/onnx_tf_prefix_Mul_313", "op": "Mul", "input": ["PartitionedCall/transpose_30", "unknown_82"], "attr": {"T": {"type": "DT_FLOAT"}}}, {"name": "PartitionedCall/onnx_tf_prefix_LeakyRelu_314", "op": "LeakyRelu", "input": ["PartitionedCall/onnx_tf_prefix_Mul_313"], "attr": {"alpha": {"f": 0.2}, "T": {"type": "DT_FLOAT"}}}, {"name": "PartitionedCall/onnx_tf_prefix_Pow_315", "op": "Square", "input": ["PartitionedCall/onnx_tf_prefix_LeakyRelu_314"], "attr": {"T": {"type": "DT_FLOAT"}}}, {"name": "PartitionedCall/onnx_tf_prefix_ReduceMean_316", "op": "Mean", "input": ["PartitionedCall/onnx_tf_prefix_Pow_315", "PartitionedCall/onnx_tf_prefix_ReduceMean_316/reduction_indices"], "attr": {"keep_dims": {"b": true}, "T": {"type": "DT_FLOAT"}, "Tidx": {"type": "DT_INT32"}}}, {"name": "PartitionedCall/onnx_tf_prefix_Add_318", "op": "Add", "input": ["PartitionedCall/onnx_tf_prefix_ReduceMean_316", "PartitionedCall/onnx_tf_prefix_Constant_317"], "attr": {"T": {"type": "DT_FLOAT"}}}, {"name": "PartitionedCall/onnx_tf_prefix_Sqrt_319", "op": "Sqrt", "input": ["PartitionedCall/onnx_tf_prefix_Add_318"], "attr": {"T": {"type": "DT_FLOAT"}}}, {"name": "PartitionedCall/onnx_tf_prefix_Div_321", "op": "Reciprocal", "input": ["PartitionedCall/onnx_tf_prefix_Sqrt_319"], "attr": {"T": {"type": "DT_FLOAT"}}}, {"name": "PartitionedCall/onnx_tf_prefix_Mul_322", "op": "Mul", "input": ["PartitionedCall/onnx_tf_prefix_LeakyRelu_314", "PartitionedCall/onnx_tf_prefix_Div_321"], "attr": {"T": {"type": "DT_FLOAT"}}}, {"name": "PartitionedCall/Pad_10", "op": "Pad", "input": ["PartitionedCall/onnx_tf_prefix_Mul_322", "PartitionedCall/Const_37"], "attr": {"T": {"type": "DT_FLOAT"}, "Tpaddings": {"type": "DT_INT32"}}}, {"name": "PartitionedCall/transpose_32", "op": "Transpose", "input": ["PartitionedCall/Pad_10", "PartitionedCall/transpose_32/perm"], "attr": {"T": {"type": "DT_FLOAT"}, "Tperm": {"type": "DT_INT32"}}}, {"name": "PartitionedCall/convolution_10", "op": "Conv2D", "input": ["PartitionedCall/transpose_32", "PartitionedCall/split_10"], "device": "/device:CPU:0", "attr": {"padding": {"s": "VkFMSUQ="}, "use_cudnn_on_gpu": {"b": true}, "T": {"type": "DT_FLOAT"}, "dilations": {"list": {"i": ["1", "1", "1", "1"]}}, "strides": {"list": {"i": ["1", "1", "1", "1"]}}, "explicit_paddings": {"list": {}}, "data_format": {"s": "TkhXQw=="}}}, {"name": "PartitionedCall/Add_28", "op": "Add", "input": ["PartitionedCall/convolution_10", "unknown_85"], "attr": {"T": {"type": "DT_FLOAT"}}}, {"name": "PartitionedCall/transpose_33", "op": "Transpose", "input": ["PartitionedCall/Add_28", "PartitionedCall/transpose_33/perm"], "attr": {"T": {"type": "DT_FLOAT"}, "Tperm": {"type": "DT_INT32"}}}, {"name": "PartitionedCall/onnx_tf_prefix_Mul_324", "op": "Mul", "input": ["PartitionedCall/transpose_33", "unknown_86"], "attr": {"T": {"type": "DT_FLOAT"}}}, {"name": "PartitionedCall/onnx_tf_prefix_LeakyRelu_325", "op": "LeakyRelu", "input": ["PartitionedCall/onnx_tf_prefix_Mul_324"], "attr": {"T": {"type": "DT_FLOAT"}, "alpha": {"f": 0.2}}}, {"name": "PartitionedCall/onnx_tf_prefix_Pow_326", "op": "Square", "input": ["PartitionedCall/onnx_tf_prefix_LeakyRelu_325"], "attr": {"T": {"type": "DT_FLOAT"}}}, {"name": "PartitionedCall/onnx_tf_prefix_ReduceMean_327", "op": "Mean", "input": ["PartitionedCall/onnx_tf_prefix_Pow_326", "PartitionedCall/onnx_tf_prefix_ReduceMean_327/reduction_indices"], "attr": {"Tidx": {"type": "DT_INT32"}, "keep_dims": {"b": true}, "T": {"type": "DT_FLOAT"}}}, {"name": "PartitionedCall/onnx_tf_prefix_Add_329", "op": "Add", "input": ["PartitionedCall/onnx_tf_prefix_ReduceMean_327", "PartitionedCall/onnx_tf_prefix_Constant_328"], "attr": {"T": {"type": "DT_FLOAT"}}}, {"name": "PartitionedCall/onnx_tf_prefix_Sqrt_330", "op": "Sqrt", "input": ["PartitionedCall/onnx_tf_prefix_Add_329"], "attr": {"T": {"type": "DT_FLOAT"}}}, {"name": "PartitionedCall/onnx_tf_prefix_Div_332", "op": "Reciprocal", "input": ["PartitionedCall/onnx_tf_prefix_Sqrt_330"], "attr": {"T": {"type": "DT_FLOAT"}}}, {"name": "PartitionedCall/onnx_tf_prefix_Mul_333", "op": "Mul", "input": ["PartitionedCall/onnx_tf_prefix_LeakyRelu_325", "PartitionedCall/onnx_tf_prefix_Div_332"], "attr": {"T": {"type": "DT_FLOAT"}}}, {"name": "PartitionedCall/transpose_35", "op": "Transpose", "input": ["PartitionedCall/onnx_tf_prefix_Mul_333", "PartitionedCall/transpose_35/perm"], "attr": {"Tperm": {"type": "DT_INT32"}, "T": {"type": "DT_FLOAT"}}}, {"name": "PartitionedCall/convolution_11", "op": "Conv2D", "input": ["PartitionedCall/transpose_35", "PartitionedCall/split_11"], "device": "/device:CPU:0", "attr": {"dilations": {"list": {"i": ["1", "1", "1", "1"]}}, "use_cudnn_on_gpu": {"b": true}, "strides": {"list": {"i": ["1", "1", "1", "1"]}}, "padding": {"s": "VkFMSUQ="}, "T": {"type": "DT_FLOAT"}, "explicit_paddings": {"list": {}}, "data_format": {"s": "TkhXQw=="}}}, {"name": "PartitionedCall/Add_29", "op": "Add", "input": ["PartitionedCall/convolution_11", "unknown_89"], "attr": {"T": {"type": "DT_FLOAT"}}}, {"name": "PartitionedCall/transpose_36", "op": "Transpose", "input": ["PartitionedCall/Add_29", "PartitionedCall/transpose_36/perm"], "attr": {"Tperm": {"type": "DT_INT32"}, "T": {"type": "DT_FLOAT"}}}, {"name": "PartitionedCall/onnx_tf_prefix_Mul_335", "op": "Mul", "input": ["PartitionedCall/transpose_36", "unknown_90"], "attr": {"T": {"type": "DT_FLOAT"}}}, {"name": "Identity", "op": "Identity", "input": ["PartitionedCall/onnx_tf_prefix_Mul_335"], "attr": {"T": {"type": "DT_FLOAT"}}}], "library": {}, "versions": {"producer": 561}}, "weightsManifest": [{"paths": ["group1-shard1of15.bin", "group1-shard2of15.bin", "group1-shard3of15.bin", "group1-shard4of15.bin", "group1-shard5of15.bin", "group1-shard6of15.bin", "group1-shard7of15.bin", "group1-shard8of15.bin", "group1-shard9of15.bin", "group1-shard10of15.bin", "group1-shard11of15.bin", "group1-shard12of15.bin", "group1-shard13of15.bin", "group1-shard14of15.bin", "group1-shard15of15.bin"], "weights": [{"name": "PartitionedCall/onnx_tf_prefix_Constant_5", "shape": [], "dtype": "float32", "quantization": {"dtype": "float16", "original_dtype": "float32"}}, {"name": "PartitionedCall/onnx_tf_prefix_ReduceMean_1/reduction_indices", "shape": [], "dtype": "int32"}, {"name": "PartitionedCall/onnx_tf_prefix_Constant_2", "shape": [], "dtype": "float32", "quantization": {"dtype": "float16", "original_dtype": "float32"}}, {"name": "PartitionedCall/flatten/Const", "shape": [2], "dtype": "int32"}, {"name": "PartitionedCall/transpose", "shape": [512, 8192], "dtype": "float32", "quantization": {"dtype": "float16", "original_dtype": "float32"}}, {"name": "PartitionedCall/mul_1", "shape": [8192], "dtype": "float32", "quantization": {"dtype": "float16", "original_dtype": "float32"}}, {"name": "unknown_4", "shape": [], "dtype": "float32", "quantization": {"dtype": "float16", "original_dtype": "float32"}}, {"name": "PartitionedCall/onnx_tf_prefix_Concat_23", "shape": [4], "dtype": "int32"}, {"name": "PartitionedCall/Where_1", "shape": [0, 1], "dtype": "int32"}, {"name": "PartitionedCall/Cast_1", "shape": [1], "dtype": "int32"}, {"name": "PartitionedCall/GatherV2_1", "shape": [0], "dtype": "int32"}, {"name": "PartitionedCall/zeros_1", "shape": [], "dtype": "int32"}, {"name": "PartitionedCall/onnx_tf_prefix_ReduceMean_26/reduction_indices", "shape": [], "dtype": "int32"}, {"name": "PartitionedCall/onnx_tf_prefix_Constant_27", "shape": [], "dtype": "float32", "quantization": {"dtype": "float16", "original_dtype": "float32"}}, {"name": "PartitionedCall/Const_2", "shape": [4, 2], "dtype": "int32"}, {"name": "PartitionedCall/transpose_2/perm", "shape": [4], "dtype": "int32"}, {"name": "PartitionedCall/split", "shape": [3, 3, 512, 512], "dtype": "float32", "quantization": {"dtype": "float16", "original_dtype": "float32"}}, {"name": "unknown_10", "shape": [512], "dtype": "float32", "quantization": {"dtype": "float16", "original_dtype": "float32"}}, {"name": "PartitionedCall/transpose_3/perm", "shape": [4], "dtype": "int32"}, {"name": "unknown_11", "shape": [], "dtype": "float32", "quantization": {"dtype": "float16", "original_dtype": "float32"}}, {"name": "PartitionedCall/onnx_tf_prefix_ReduceMean_37/reduction_indices", "shape": [], "dtype": "int32"}, {"name": "PartitionedCall/onnx_tf_prefix_Constant_38", "shape": [], "dtype": "float32", "quantization": {"dtype": "float16", "original_dtype": "float32"}}, {"name": "PartitionedCall/onnx_tf_prefix_Concat_56", "shape": [6], "dtype": "int32"}, {"name": "PartitionedCall/Where_2", "shape": [0, 1], "dtype": "int32"}, {"name": "PartitionedCall/Cast_2", "shape": [1], "dtype": "int32"}, {"name": "PartitionedCall/GatherV2_2", "shape": [0], "dtype": "int32"}, {"name": "PartitionedCall/zeros_2", "shape": [], "dtype": "int32"}, {"name": "PartitionedCall/ones", "shape": [1, 512, 4, 2, 4, 2], "dtype": "float32", "quantization": {"dtype": "float16", "original_dtype": "float32"}}, {"name": "PartitionedCall/onnx_tf_prefix_Concat_78", "shape": [4], "dtype": "int32"}, {"name": "PartitionedCall/Where_4", "shape": [0, 1], "dtype": "int32"}, {"name": "PartitionedCall/Cast_4", "shape": [1], "dtype": "int32"}, {"name": "PartitionedCall/GatherV2_4", "shape": [0], "dtype": "int32"}, {"name": "PartitionedCall/zeros_4", "shape": [], "dtype": "int32"}, {"name": "PartitionedCall/Const_7", "shape": [4, 2], "dtype": "int32"}, {"name": "PartitionedCall/transpose_5/perm", "shape": [4], "dtype": "int32"}, {"name": "PartitionedCall/split_1", "shape": [3, 3, 512, 512], "dtype": "float32", "quantization": {"dtype": "float16", "original_dtype": "float32"}}, {"name": "unknown_21", "shape": [512], "dtype": "float32", "quantization": {"dtype": "float16", "original_dtype": "float32"}}, {"name": "PartitionedCall/transpose_6/perm", "shape": [4], "dtype": "int32"}, {"name": "unknown_22", "shape": [], "dtype": "float32", "quantization": {"dtype": "float16", "original_dtype": "float32"}}, {"name": "PartitionedCall/onnx_tf_prefix_ReduceMean_84/reduction_indices", "shape": [], "dtype": "int32"}, {"name": "PartitionedCall/onnx_tf_prefix_Constant_85", "shape": [], "dtype": "float32", "quantization": {"dtype": "float16", "original_dtype": "float32"}}, {"name": "PartitionedCall/Const_9", "shape": [4, 2], "dtype": "int32"}, {"name": "PartitionedCall/transpose_8/perm", "shape": [4], "dtype": "int32"}, {"name": "PartitionedCall/split_2", "shape": [3, 3, 512, 512], "dtype": "float32", "quantization": {"dtype": "float16", "original_dtype": "float32"}}, {"name": "unknown_25", "shape": [512], "dtype": "float32", "quantization": {"dtype": "float16", "original_dtype": "float32"}}, {"name": "PartitionedCall/transpose_9/perm", "shape": [4], "dtype": "int32"}, {"name": "unknown_26", "shape": [], "dtype": "float32", "quantization": {"dtype": "float16", "original_dtype": "float32"}}, {"name": "PartitionedCall/onnx_tf_prefix_ReduceMean_95/reduction_indices", "shape": [], "dtype": "int32"}, {"name": "PartitionedCall/onnx_tf_prefix_Constant_96", "shape": [], "dtype": "float32", "quantization": {"dtype": "float16", "original_dtype": "float32"}}, {"name": "PartitionedCall/onnx_tf_prefix_Concat_114", "shape": [6], "dtype": "int32"}, {"name": "PartitionedCall/Where_5", "shape": [0, 1], "dtype": "int32"}, {"name": "PartitionedCall/Cast_5", "shape": [1], "dtype": "int32"}, {"name": "PartitionedCall/GatherV2_5", "shape": [0], "dtype": "int32"}, {"name": "PartitionedCall/zeros_5", "shape": [], "dtype": "int32"}, {"name": "PartitionedCall/ones_1", "shape": [1, 512, 8, 2, 8, 2], "dtype": "float32", "quantization": {"dtype": "float16", "original_dtype": "float32"}}, {"name": "PartitionedCall/onnx_tf_prefix_Concat_136", "shape": [4], "dtype": "int32"}, {"name": "PartitionedCall/Where_7", "shape": [0, 1], "dtype": "int32"}, {"name": "PartitionedCall/Cast_7", "shape": [1], "dtype": "int32"}, {"name": "PartitionedCall/GatherV2_7", "shape": [0], "dtype": "int32"}, {"name": "PartitionedCall/zeros_7", "shape": [], "dtype": "int32"}, {"name": "PartitionedCall/Const_14", "shape": [4, 2], "dtype": "int32"}, {"name": "PartitionedCall/transpose_11/perm", "shape": [4], "dtype": "int32"}, {"name": "PartitionedCall/split_3", "shape": [3, 3, 512, 512], "dtype": "float32", "quantization": {"dtype": "float16", "original_dtype": "float32"}}, {"name": "unknown_36", "shape": [512], "dtype": "float32", "quantization": {"dtype": "float16", "original_dtype": "float32"}}, {"name": "PartitionedCall/transpose_12/perm", "shape": [4], "dtype": "int32"}, {"name": "unknown_37", "shape": [], "dtype": "float32", "quantization": {"dtype": "float16", "original_dtype": "float32"}}, {"name": "PartitionedCall/onnx_tf_prefix_ReduceMean_142/reduction_indices", "shape": [], "dtype": "int32"}, {"name": "PartitionedCall/onnx_tf_prefix_Constant_143", "shape": [], "dtype": "float32", "quantization": {"dtype": "float16", "original_dtype": "float32"}}, {"name": "PartitionedCall/Const_16", "shape": [4, 2], "dtype": "int32"}, {"name": "PartitionedCall/transpose_14/perm", "shape": [4], "dtype": "int32"}, {"name": "PartitionedCall/split_4", "shape": [3, 3, 512, 512], "dtype": "float32", "quantization": {"dtype": "float16", "original_dtype": "float32"}}, {"name": "unknown_40", "shape": [512], "dtype": "float32", "quantization": {"dtype": "float16", "original_dtype": "float32"}}, {"name": "PartitionedCall/transpose_15/perm", "shape": [4], "dtype": "int32"}, {"name": "unknown_41", "shape": [], "dtype": "float32", "quantization": {"dtype": "float16", "original_dtype": "float32"}}, {"name": "PartitionedCall/onnx_tf_prefix_ReduceMean_153/reduction_indices", "shape": [], "dtype": "int32"}, {"name": "PartitionedCall/onnx_tf_prefix_Constant_154", "shape": [], "dtype": "float32", "quantization": {"dtype": "float16", "original_dtype": "float32"}}, {"name": "PartitionedCall/onnx_tf_prefix_Concat_172", "shape": [6], "dtype": "int32"}, {"name": "PartitionedCall/Where_8", "shape": [0, 1], "dtype": "int32"}, {"name": "PartitionedCall/Cast_8", "shape": [1], "dtype": "int32"}, {"name": "PartitionedCall/GatherV2_8", "shape": [0], "dtype": "int32"}, {"name": "PartitionedCall/zeros_8", "shape": [], "dtype": "int32"}, {"name": "PartitionedCall/ones_2", "shape": [1, 512, 16, 2, 16, 2], "dtype": "float32", "quantization": {"dtype": "float16", "original_dtype": "float32"}}, {"name": "PartitionedCall/onnx_tf_prefix_Concat_194", "shape": [4], "dtype": "int32"}, {"name": "PartitionedCall/Where_10", "shape": [0, 1], "dtype": "int32"}, {"name": "PartitionedCall/Cast_10", "shape": [1], "dtype": "int32"}, {"name": "PartitionedCall/GatherV2_10", "shape": [0], "dtype": "int32"}, {"name": "PartitionedCall/zeros_10", "shape": [], "dtype": "int32"}, {"name": "PartitionedCall/Const_21", "shape": [4, 2], "dtype": "int32"}, {"name": "PartitionedCall/transpose_17/perm", "shape": [4], "dtype": "int32"}, {"name": "PartitionedCall/split_5", "shape": [3, 3, 512, 512], "dtype": "float32", "quantization": {"dtype": "float16", "original_dtype": "float32"}}, {"name": "unknown_51", "shape": [512], "dtype": "float32", "quantization": {"dtype": "float16", "original_dtype": "float32"}}, {"name": "PartitionedCall/transpose_18/perm", "shape": [4], "dtype": "int32"}, {"name": "unknown_52", "shape": [], "dtype": "float32", "quantization": {"dtype": "float16", "original_dtype": "float32"}}, {"name": "PartitionedCall/onnx_tf_prefix_ReduceMean_200/reduction_indices", "shape": [], "dtype": "int32"}, {"name": "PartitionedCall/onnx_tf_prefix_Constant_201", "shape": [], "dtype": "float32", "quantization": {"dtype": "float16", "original_dtype": "float32"}}, {"name": "PartitionedCall/Const_23", "shape": [4, 2], "dtype": "int32"}, {"name": "PartitionedCall/transpose_20/perm", "shape": [4], "dtype": "int32"}, {"name": "PartitionedCall/split_6", "shape": [3, 3, 512, 512], "dtype": "float32", "quantization": {"dtype": "float16", "original_dtype": "float32"}}, {"name": "unknown_55", "shape": [512], "dtype": "float32", "quantization": {"dtype": "float16", "original_dtype": "float32"}}, {"name": "PartitionedCall/transpose_21/perm", "shape": [4], "dtype": "int32"}, {"name": "unknown_56", "shape": [], "dtype": "float32", "quantization": {"dtype": "float16", "original_dtype": "float32"}}, {"name": "PartitionedCall/onnx_tf_prefix_ReduceMean_211/reduction_indices", "shape": [], "dtype": "int32"}, {"name": "PartitionedCall/onnx_tf_prefix_Constant_212", "shape": [], "dtype": "float32", "quantization": {"dtype": "float16", "original_dtype": "float32"}}, {"name": "PartitionedCall/onnx_tf_prefix_Concat_230", "shape": [6], "dtype": "int32"}, {"name": "PartitionedCall/Where_11", "shape": [0, 1], "dtype": "int32"}, {"name": "PartitionedCall/Cast_11", "shape": [1], "dtype": "int32"}, {"name": "PartitionedCall/GatherV2_11", "shape": [0], "dtype": "int32"}, {"name": "PartitionedCall/zeros_11", "shape": [], "dtype": "int32"}, {"name": "PartitionedCall/ones_3", "shape": [1, 512, 32, 2, 32, 2], "dtype": "float32", "quantization": {"dtype": "float16", "original_dtype": "float32"}}, {"name": "PartitionedCall/onnx_tf_prefix_Concat_252", "shape": [4], "dtype": "int32"}, {"name": "PartitionedCall/Where_13", "shape": [0, 1], "dtype": "int32"}, {"name": "PartitionedCall/Cast_13", "shape": [1], "dtype": "int32"}, {"name": "PartitionedCall/GatherV2_13", "shape": [0], "dtype": "int32"}, {"name": "PartitionedCall/zeros_13", "shape": [], "dtype": "int32"}, {"name": "PartitionedCall/Const_28", "shape": [4, 2], "dtype": "int32"}, {"name": "PartitionedCall/transpose_23/perm", "shape": [4], "dtype": "int32"}, {"name": "PartitionedCall/split_7", "shape": [3, 3, 512, 256], "dtype": "float32", "quantization": {"dtype": "float16", "original_dtype": "float32"}}, {"name": "unknown_66", "shape": [256], "dtype": "float32", "quantization": {"dtype": "float16", "original_dtype": "float32"}}, {"name": "PartitionedCall/transpose_24/perm", "shape": [4], "dtype": "int32"}, {"name": "unknown_67", "shape": [], "dtype": "float32", "quantization": {"dtype": "float16", "original_dtype": "float32"}}, {"name": "PartitionedCall/onnx_tf_prefix_ReduceMean_258/reduction_indices", "shape": [], "dtype": "int32"}, {"name": "PartitionedCall/onnx_tf_prefix_Constant_259", "shape": [], "dtype": "float32", "quantization": {"dtype": "float16", "original_dtype": "float32"}}, {"name": "PartitionedCall/Const_30", "shape": [4, 2], "dtype": "int32"}, {"name": "PartitionedCall/transpose_26/perm", "shape": [4], "dtype": "int32"}, {"name": "PartitionedCall/split_8", "shape": [3, 3, 256, 256], "dtype": "float32", "quantization": {"dtype": "float16", "original_dtype": "float32"}}, {"name": "unknown_70", "shape": [256], "dtype": "float32", "quantization": {"dtype": "float16", "original_dtype": "float32"}}, {"name": "PartitionedCall/transpose_27/perm", "shape": [4], "dtype": "int32"}, {"name": "unknown_71", "shape": [], "dtype": "float32", "quantization": {"dtype": "float16", "original_dtype": "float32"}}, {"name": "PartitionedCall/onnx_tf_prefix_ReduceMean_269/reduction_indices", "shape": [], "dtype": "int32"}, {"name": "PartitionedCall/onnx_tf_prefix_Constant_270", "shape": [], "dtype": "float32", "quantization": {"dtype": "float16", "original_dtype": "float32"}}, {"name": "PartitionedCall/onnx_tf_prefix_Concat_288", "shape": [6], "dtype": "int32"}, {"name": "PartitionedCall/Where_14", "shape": [0, 1], "dtype": "int32"}, {"name": "PartitionedCall/Cast_14", "shape": [1], "dtype": "int32"}, {"name": "PartitionedCall/GatherV2_14", "shape": [0], "dtype": "int32"}, {"name": "PartitionedCall/zeros_14", "shape": [], "dtype": "int32"}, {"name": "PartitionedCall/ones_4", "shape": [1, 256, 64, 2, 64, 2], "dtype": "float32", "quantization": {"dtype": "float16", "original_dtype": "float32"}}, {"name": "PartitionedCall/onnx_tf_prefix_Concat_310", "shape": [4], "dtype": "int32"}, {"name": "PartitionedCall/Where_16", "shape": [0, 1], "dtype": "int32"}, {"name": "PartitionedCall/Cast_16", "shape": [1], "dtype": "int32"}, {"name": "PartitionedCall/GatherV2_16", "shape": [0], "dtype": "int32"}, {"name": "PartitionedCall/zeros_16", "shape": [], "dtype": "int32"}, {"name": "PartitionedCall/Const_35", "shape": [4, 2], "dtype": "int32"}, {"name": "PartitionedCall/transpose_29/perm", "shape": [4], "dtype": "int32"}, {"name": "PartitionedCall/split_9", "shape": [3, 3, 256, 128], "dtype": "float32", "quantization": {"dtype": "float16", "original_dtype": "float32"}}, {"name": "unknown_81", "shape": [128], "dtype": "float32", "quantization": {"dtype": "float16", "original_dtype": "float32"}}, {"name": "PartitionedCall/transpose_30/perm", "shape": [4], "dtype": "int32"}, {"name": "unknown_82", "shape": [], "dtype": "float32", "quantization": {"dtype": "float16", "original_dtype": "float32"}}, {"name": "PartitionedCall/onnx_tf_prefix_ReduceMean_316/reduction_indices", "shape": [], "dtype": "int32"}, {"name": "PartitionedCall/onnx_tf_prefix_Constant_317", "shape": [], "dtype": "float32", "quantization": {"dtype": "float16", "original_dtype": "float32"}}, {"name": "PartitionedCall/Const_37", "shape": [4, 2], "dtype": "int32"}, {"name": "PartitionedCall/transpose_32/perm", "shape": [4], "dtype": "int32"}, {"name": "PartitionedCall/split_10", "shape": [3, 3, 128, 128], "dtype": "float32", "quantization": {"dtype": "float16", "original_dtype": "float32"}}, {"name": "unknown_85", "shape": [128], "dtype": "float32", "quantization": {"dtype": "float16", "original_dtype": "float32"}}, {"name": "PartitionedCall/transpose_33/perm", "shape": [4], "dtype": "int32"}, {"name": "unknown_86", "shape": [], "dtype": "float32", "quantization": {"dtype": "float16", "original_dtype": "float32"}}, {"name": "PartitionedCall/onnx_tf_prefix_ReduceMean_327/reduction_indices", "shape": [], "dtype": "int32"}, {"name": "PartitionedCall/onnx_tf_prefix_Constant_328", "shape": [], "dtype": "float32", "quantization": {"dtype": "float16", "original_dtype": "float32"}}, {"name": "PartitionedCall/transpose_35/perm", "shape": [4], "dtype": "int32"}, {"name": "PartitionedCall/split_11", "shape": [1, 1, 128, 3], "dtype": "float32", "quantization": {"dtype": "float16", "original_dtype": "float32"}}, {"name": "unknown_89", "shape": [3], "dtype": "float32", "quantization": {"dtype": "float16", "original_dtype": "float32"}}, {"name": "PartitionedCall/transpose_36/perm", "shape": [4], "dtype": "int32"}, {"name": "unknown_90", "shape": [], "dtype": "float32", "quantization": {"dtype": "float16", "original_dtype": "float32"}}]}]}